Zadanie2/trash/best_model94.89acc-2-64-2.pth (torch, 207282 bytes, 10 tensors)

lstm1.weight_ih_l0 f4 [256, 2]
000000 70 d5 3f bd e5 7b 0d 3d 36 da 49 3c 87 d4 18 3e
       -0.04683441 0.034541983 0.012320092 0.14924823
000010 64 27 e3 bd 3d f8 1d 3e 2a f5 12 3e c1 8d 49 bd
       -0.110914975 0.15426727 0.14351335 -0.049207453
000020 ef 06 4e bd 07 dc de 3d 7f 85 a6 3b 79 c1 7f bd
       -0.05029958 0.10881811 0.005081832 -0.06244037
000030 35 d7 30 3d a8 e9 83 3c 97 92 72 3d a3 4c 05 3e
       0.043173987 0.016102627 0.05922183 0.13017516
000040 6a 32 a8 3e d4 81 0d 3f 00 eb 5a 3d 0f f6 19 3e
       0.32850963 0.55276227 0.05344677 0.1503527
000050 e0 1d 81 bd 4b f3 07 3e d2 d9 20 be b2 1e 8b bd
       -0.06304526 0.13276403 -0.15708092 -0.06792964
000060 3e 6c 25 ba e7 1c 19 bd 39 a0 8f 3d c5 8c bf 3c
       -0.000631038 -0.03738108 0.07012982 0.023382554
000070 52 4d 2c 3c a5 ed 26 3d 7a 04 04 3e 52 59 e7 bc
       0.0105164815 0.04075398 0.12892333 -0.028240833
000080 42 47 c7 bd 79 31 66 be ef c2 47 bd 9f 05 8c 3d
       -0.09730388 -0.2247981 -0.048769888 0.0683701
000090 68 26 28 3e 88 d4 ab bd d6 5d c4 3b 0c db 87 bd
       0.16420901 -0.083901465 0.0059926314 -0.06633577
0000a0 1c 63 93 3e 40 cf 76 3e 95 51 17 3e e4 ea f3 3d
       0.28786552 0.24102497 0.14777215 0.11910036
0000b0 e5 ba 60 3d 5a bf 4b bc f1 6b 8d 3e a2 88 4d 3e
       0.054865737 -0.0124357585 0.27621415 0.20071653
0000c0 a9 5b 93 3d da eb a2 bc e7 2e 09 bd 16 7c 8c 3d
       0.07195217 -0.019887853 -0.033491995 0.06859605
0000d0 b3 1c 06 bd 9d af 26 bd a2 af 15 3e b8 99 a1 3e
       -0.032742213 -0.04069482 0.1461778 0.3156259
0000e0 62 ae 1c 3e 9b 2b 25 be d1 c7 7f 3e a7 30 df 3e
       0.15300897 -0.16129915 0.24978568 0.43591806
0000f0 3a 02 6d 3e 0a 2b 05 3f 93 ba e7 3d ca 93 7c 3e
       0.2314538 0.520188 0.11314883 0.24665752
000100 3a 56 00 be 41 2d ad 3d 3b cc e1 3d 61 cc f2 bc
       -0.12532893 0.08455897 0.11025282 -0.029638471
000110 6d c1 bf bd 08 18 bc bd 10 62 4f 3d 35 00 db 3c
       -0.09363065 -0.09184271 0.05063063 0.026733497
000120 c8 4d 51 3e 61 81 06 3e bd 39 91 3e e2 f9 db 3e
       0.20439827 0.13135292 0.28364363 0.42964083
000130 68 d7 80 3e 08 42 02 3f 31 46 bf 3d 8d e8 61 bd
       0.25164342 0.50882006 0.0933956 -0.05515342
000140 02 13 3e 3e 7e 49 2d 3e 12 d4 eb bc ed 72 dc 3d
       0.18561938 0.16922566 -0.028787646 0.10764108
000150 2c 39 c6 3e 36 1b 83 3e 3e ec d9 bd d9 fb cf bd
       0.38715494 0.25606698 -0.10640763 -0.10155458
000160 e2 2d 4d 3d 0d fc e0 3d 0c 44 02 3e e4 a7 31 be
       0.050092585 0.10985575 0.1272127 -0.17349201
000170 d5 75 84 3c 04 bc 63 3d df 6a 6e 3d 5d 78 cd 3c
       0.016169468 0.055599228 0.05820739 0.025081808
000180 62 f3 69 3e 43 de 1f 3e 3c 11 15 3d 7d 31 81 3e
       0.2284675 0.1561213 0.03639339 0.2523307
000190 e0 6a 04 3c 36 2e 26 3d 4e 56 e7 3d e9 3c e9 bd
       0.008082122 0.040571414 0.11295758 -0.11388571
0001a0 65 ca 01 3f 2b 55 ad 3e ca eb 8f bd cb 40 d8 3d
       0.50699455 0.3385404 -0.07027395 0.10559233
0001b0 01 f6 31 3e 97 86 6d 3e c5 54 9e 3d 90 7e 41 3e
       0.17379 0.23195873 0.07731012 0.18895936
0001c0 c9 dc 63 3d 70 ed 21 bd 69 be 2f 3f 9c d0 f2 3d
       0.05563048 -0.03953308 0.6864992 0.11856195
0001d0 e4 07 9b bc 3a 2c 50 3d 48 bc f1 3d 75 dd 83 bd
       -0.018924661 0.050823428 0.1180349 -0.06438724
0001e0 f9 55 31 3f a2 e5 31 3f 6c 09 9f bc 93 92 34 bd
       0.6927181 0.69491017 -0.019413672 -0.044085097
0001f0 6c 0b 10 be 77 4a 44 bc 35 cd c4 bc 6c e0 e7 3d
       -0.14066857 -0.011980644 -0.024023632 0.11322102
000200 16 ed ec 3c ed f1 59 3e b4 d1 8f ba 2a 76 65 3e
       0.028921645 0.21283694 -0.001097253 0.22408357
000210 5a 4d 34 3d ec e0 fe 3c 1d 57 a7 3d 92 a5 ba 3c
       0.04401908 0.03111311 0.081709124 0.022784028
000220 e0 b2 de 3d 5f 02 e4 bc 4a 41 cf 3d 5f ad 85 bd
       0.108739614 -0.027833162 0.10119875 -0.065272085
000230 32 b6 d0 3b b5 da 92 3d d2 94 da 3b cb d3 aa bd
       0.0063693756 0.07170621 0.006670573 -0.083411776
000240 7f d3 bf 3e 2b 13 e9 3e cd 24 02 3e d5 16 fd 3d
       0.37466046 0.45522436 0.12709351 0.123578705
000250 f3 4a 79 bd 71 1e f7 3d b8 de d3 3d 2d bb c6 3e
       -0.060862493 0.12066353 0.103452146 0.3881468
000260 8e 0e c3 3c 10 5b 13 3e 3c bf 16 3d 64 34 51 3d
       0.023810651 0.14390206 0.03680347 0.051075354
000270 dd b1 8c 3e bd 26 9d 3e d0 5f 77 3e 07 14 87 3e
       0.2747945 0.30693617 0.24157643 0.26382467
000280 7b c3 e2 be 90 f2 63 bd 7b 5c 08 3e c7 a0 75 bd
       -0.44289765 -0.055651248 0.13316528 -0.059967782
000290 d2 97 87 be e7 ba 11 be bc e6 ec 3c e9 e3 b1 3c
       -0.26483017 -0.14231454 0.028918616 0.021715121
0002a0 57 f3 24 bd 9b 25 52 bd 07 18 e8 3b 06 dd 0d 3e
       -0.04027113 -0.051305395 0.0070829424 0.13853845
0002b0 b0 5d 83 bd 5e 55 f0 bd af cd e2 bd 05 7b fd 3d
       -0.06414354 -0.117350325 -0.11074387 0.1237698
0002c0 95 3c 40 3c 0f af a7 3e 17 ea 28 3d 48 74 30 3e
       0.011733194 0.32750747 0.04123887 0.17231858
0002d0 0b 41 b0 3e 6d c5 a6 3e b3 fd 14 3e 2a be 66 3e
       0.34424624 0.325725 0.14549904 0.2253348
0002e0 1a 06 b1 3d 4e 80 a4 bd 4b 7d 7d 3e 2a bf 8b 3d
       0.08643742 -0.08032285 0.24754827 0.06823571
0002f0 e0 6c 4a 3e 7b a6 4a 3e a5 2b 59 3e df 8c 16 3d
       0.19768095 0.1979007 0.21208055 0.03675544
000300 c5 a8 53 3e 1a 9f f7 3d 0e fe a6 3c 67 db e0 bd
       0.20669849 0.12090893 0.020384815 -0.10979348
000310 c2 fe 90 3d da 43 2e 3c 04 8f 29 3e 96 1c 75 3e
       0.07079841 0.010636294 0.16558462 0.23936686
000320 d9 16 99 3b d7 bf 1e 3e 37 3e 57 3e a2 99 1f 3e
       0.004671913 0.15502869 0.21019827 0.1558595
000330 ce 5a c5 3e 80 19 f6 3e 31 90 08 3e 80 ad 12 3e
       0.3854584 0.4806633 0.13336255 0.14323997
000340 56 9c 5f bd 04 f4 6d 3e cf 22 ec 3d d3 39 9d bd
       -0.054592453 0.23237616 0.11530077 -0.07677045
000350 7c e6 01 be 2c 88 21 bc 40 71 37 bd d6 ea 1f 3e
       -0.12685579 -0.009859126 -0.044785738 0.15616927
000360 89 1b 50 3d e0 2f 30 3d 21 33 1a 3e 39 91 13 bd
       0.05080751 0.043014407 0.15058567 -0.036027167
000370 5c cb 39 bd 0d a8 17 3e ba 20 7a 3e 0b 9b 49 3d
       -0.045359954 0.148102 0.24426547 0.049220126
000380 d0 41 a6 bd c6 89 90 3e b8 54 cb bd 22 26 a5 3d
       -0.081180215 0.28230113 -0.09928268 0.08063914
000390 d7 b6 1a 3e 13 79 6f bd 6a 42 1e 3e 4e 3a 0d 3e
       0.1510881 -0.058465075 0.15455022 0.13791773
0003a0 6d d4 7b bd b5 4b 50 3e 9a fe e4 bd f6 74 8f 3d
       -0.061481882 0.2034138 -0.11181374 0.070047304
0003b0 98 82 82 3c a8 e0 9e 3d 81 18 16 3e a5 c0 fd 3d
       0.015931413 0.077576935 0.14657785 0.1239026
0003c0 22 14 fd bc 60 86 d7 3d 5e 58 94 3e b5 39 89 3d
       -0.03089339 0.10523677 0.2897367 0.0670046
0003d0 f8 d3 c1 bb 8e 35 85 3e 28 a8 e3 3d f9 92 38 be
       -0.005915161 0.2601742 0.11116058 -0.18024816
0003e0 a4 60 8b 3d 5d 34 48 3e c1 c8 d9 3e e8 da 2e be
       0.06805542 0.19551225 0.42535976 -0.17075694
0003f0 98 32 ba bb 13 34 1a 3d 1e 04 64 3c e8 12 36 3e
       -0.005682301 0.037647318 0.013916997 0.1778065

lstm1.weight_hh_l0 f4 [256, 64]
000000 bc 0d c9 bd a1 42 84 3d 7c 46 36 be 43 b2 48 bd
       -0.09817073 0.06458021 -0.17800325 -0.04899813
000010 7b 82 84 bd 11 ea 24 be 82 99 7a 3d 9e 19 d0 bc
       -0.064702 -0.16104914 0.061181553 -0.02540284
000020 ef 84 15 bb 15 a7 e9 bd 00 86 08 bd 3a 4c 2c bc
       -0.002281483 -0.114088215 -0.033330917 -0.010516221
000030 06 e6 c7 3c 3c 38 19 be b1 ff 6b bd 1e df ab 3d
       0.024401676 -0.14962858 -0.057616893 0.083921656
000040 67 c6 51 bd 22 f0 10 be df 90 87 3d 48 b7 17 be
       -0.0512146 -0.14154103 0.06619429 -0.1481601
000050 1b 2d ab bd 91 8a 13 3d 06 3a 6b bd 50 d9 fa 3d
       -0.083582126 0.03602082 -0.057428382 0.1224848
000060 89 d1 3f 3e a0 4e c7 bd 94 53 d7 bc 9c 64 46 be
       0.18732275 -0.097317934 -0.02628497 -0.19374317
000070 80 69 e3 3d b6 eb 29 3e a0 6b 81 bc 9e c4 28 3b
       0.11104107 0.16593823 -0.01579839 0.0025751959
000080 90 8d d0 3b 6c 9d 55 be 4c d5 0f 3d 2c 1d 3d 3d
       0.006364532 -0.20860833 0.035115525 0.0461704
000090 f0 05 69 3d c4 57 3c bd 69 71 64 3e c8 95 02 bb
       0.056890428 -0.045982137 0.22308888 -0.0019925702
0000a0 a9 36 a4 bd 59 5a ad 3b 10 85 53 bd 27 72 5c be
       -0.08018238 0.0052903113 -0.05164057 -0.2152792
0000b0 a8 82 f1 3d 28 2d 25 3d a8 7f b8 bd 82 83 8f 3d
       0.11792499 0.040326267 -0.090087235 0.07007505
0000c0 72 fe 00 3d 06 4d 00 3d c5 a8 c0 3c 65 44 5b 3c
       0.031492658 0.031323455 0.023517976 0.013383006
0000d0 65 da 34 3e 6b d3 ed 3d e4 4e 84 bd 04 c4 4c 3d
       0.17661436 0.116125904 -0.0646036 0.049991623
0000e0 06 8f a7 3d bc 98 8d 3c 3a ea 17 3d 47 09 79 3d
       0.081815764 0.017284743 0.03708861 0.060799863
0000f0 10 2c 3a be cd ff 81 bd 7f b4 da bd b7 35 d9 3c
       -0.18180871 -0.06347618 -0.10678958 0.026514871
000100 5b 93 a1 bd 57 a2 1c bd 96 0b dd bb 1a e4 e6 3d
       -0.07889434 -0.038240757 -0.006745766 0.11273976
000110 a2 fd 0d 3d 82 08 97 bd 8b 65 7f bd ab de 0d 3e
       0.03466571 -0.073746696 -0.0623527 0.13854472
000120 34 54 c9 3c b3 fb bc 3d 58 42 2c be 77 8a a5 bd
       0.024576284 0.09227695 -0.16822183 -0.08083051
000130 8b f6 ad bc 45 4f 16 be 65 16 1f 3e b1 c1 b0 3d
       -0.021235725 -0.14678676 0.15535887 0.08630694
000140 b5 04 db bd 75 b2 80 3d 8d 74 73 3e 93 8e 6d 3e
       -0.10694257 0.06284038 0.2377493 0.23198919
000150 78 14 9d 3c 48 49 9c 3d 51 71 aa bd 44 2e 9e bd
       0.0191748 0.07631165 -0.08322395 -0.07723668
000160 ec 50 eb 3c 58 f3 11 3e 0b 49 73 3d 1a 50 b6 3d
       0.02872511 0.14252985 0.05939583 0.08901997
000170 d3 e7 39 bc 5d 0f 14 3e d5 79 c5 bd d1 f0 99 bd
       -0.011346775 0.14458986 -0.09642378 -0.07516635
000180 c8 a1 0e 3e 01 0e cd bd d6 fc 96 3d 4c b0 ed 3d
       0.13928902 -0.10012437 0.073724434 0.116058916
000190 84 00 b5 3c 43 2a ef 3d 18 f4 24 bd f4 5b 28 be
       0.022094972 0.11677983 -0.04027185 -0.16441327
0001a0 2f 70 52 3d 4f b7 0c 3e 7a b9 2d bd 64 32 cf bd
       0.051376518 0.13741802 -0.042413212 -0.10117033
0001b0 85 9d 4d 3a f9 7d d1 bc e5 17 ab bd 92 63 bb 3d
       0.00078436016 -0.025572764 -0.08354167 0.09149851
0001c0 9e 91 cc 3d 32 79 96 bc 9f b9 6c bd 2c d7 89 3d
       0.09988712 -0.018368337 -0.05779421 0.06730494
0001d0 d1 a6 2f bc 38 de ac bc 5b 87 95 3d f2 67 13 3d
       -0.0107209245 -0.021102056 0.07301208 0.0359878
0001e0 e5 00 cf bc 67 5b c2 3d 89 84 a3 bd 27 2d 57 3d
       -0.025268981 0.0949009 -0.079842634 0.052533295
0001f0 08 f4 7f 3d 18 de 0f 3b 1a db cd 3d 65 42 14 3e
       0.062488586 0.0021952447 0.10051556 0.14478453
000200 96 1e d4 3d bd 20 9e be a8 ed 52 3e e4 29 22 3e
       0.10357396 -0.30884352 0.20598471 0.15836293
000210 3f d9 8f bd d2 fe b0 3e 36 92 99 bd 37 e6 a9 bd
       -0.07023858 0.34569412 -0.07498591 -0.08295863
000220 ec 4e 37 bd ae f9 cd 3d b0 11 9d bc 97 c5 95 bd
       -0.044753 0.10057388 -0.019173473 -0.07313078
000230 e1 3d 65 3e a5 6c a0 3d b6 3a f6 3d b9 45 92 be
       0.22386886 0.07833222 0.12022917 -0.2856882
000240 d2 72 a2 bd 1c d5 74 3e 7d a8 75 3e ed 29 d1 3c
       -0.079320565 0.2390942 0.23990054 0.025532687
000250 87 33 b5 3d 67 dd 62 3e 19 a8 f5 3d 41 2f 67 be
       0.08847719 0.22154771 0.11994953 -0.2257662
000260 d4 d7 5d be f9 78 88 3c 3e 46 78 3d d7 76 23 3e
       -0.21664363 0.016659247 0.060613863 0.15963303
000270 be 93 cc bd c4 0b c2 bd 00 e2 5f 3d 12 ea 8c be
       -0.09989117 -0.094749 0.05465889 -0.2752233
000280 08 0e bf bd 79 8a 9d 3d f9 43 6f 3d 7c c9 13 3e
       -0.09328848 0.07692427 0.058414433 0.14432329
000290 d1 af b8 bd d0 09 43 3e 91 25 9c bd 82 9f 0e be
       -0.09017909 0.19046712 -0.07624353 -0.13928035
0002a0 89 27 ee 3d 38 e7 c1 3b 40 9a 10 3c 0c b7 4a 3d
       0.116286345 0.005917456 0.008825839 0.049490973
0002b0 61 39 bf bd cf 38 a4 bd 5e 54 8d 3d 46 bf 6e 3c
       -0.09337116 -0.08018648 0.069008574 0.01457197
0002c0 0e 82 91 3d ee f6 a3 3d 5a 7c 08 3e 98 ce 43 be
       0.07104884 0.080060825 0.13328686 -0.19121778
0002d0 b3 20 50 bc 52 49 0b be 16 ce 72 3e 06 f7 84 be
       -0.012703109 -0.13602188 0.23711428 -0.25969714
0002e0 ec 63 28 be 3f 5f 21 3e d6 07 b3 bd 2c 98 d6 3d
       -0.16444367 0.1575899 -0.08741729 0.10478243
0002f0 a3 14 84 3c 33 32 0c bc 17 90 2a 3e 69 ff d9 bd
       0.016123122 -0.00855689 0.16656528 -0.10644419
000300 fd 10 39 3d 68 c5 25 bc 0a ad 2e 3d 53 c0 eb 3d
       0.045182217 -0.010117866 0.04264549 0.11511292
000310 0f 5d a8 3d e0 b9 14 bd 8c 08 fe 3d 4c b4 fc bc
       0.082208745 -0.036310077 0.12403974 -0.030847691
000320 96 11 03 3c 9d 3a c8 bc 08 3e c2 bd e9 84 6b bd
       0.007999798 -0.024442011 -0.09484488 -0.0574998
000330 70 bc 57 3e 2b 89 35 be 01 a8 70 3d 28 76 52 be
       0.21067977 -0.17728107 0.05875397 -0.20552886
000340 ea e8 89 bc 0d 9c 17 3e 20 60 c3 bc f1 6f b3 be
       -0.016834695 0.14805622 -0.023849547 -0.35046342
000350 12 83 25 3d 3c e5 06 bd 8e 02 1a bc 21 c9 2f be
       0.0404082 -0.03293346 -0.009400023 -0.17166568
000360 b7 0d 87 bd bc 63 03 3b 99 fc 36 be 33 db 27 3e
       -0.06594413 0.002004846 -0.17869796 0.16392212
000370 30 bb aa bd 5c d2 e5 bc 5c a2 b3 bc 3d b3 88 be
       -0.083364844 -0.028054409 -0.021928005 -0.26699248
000380 47 49 2e bd 99 5c 20 3d b8 06 a9 3c 6e e1 6a 3e
       -0.04255035 0.039150808 0.020633087 0.22937557
000390 98 2f 45 be d8 e1 07 3e 8f 06 51 3d f2 5c 2c be
       -0.19256437 0.13269746 0.051031645 -0.16832331
0003a0 34 87 15 3e 63 c5 72 3d 4d 6f e3 3c c4 2e 4d 3e
       0.14602357 0.059270274 0.027763033 0.20037371
0003b0 1f a2 7c 3d c3 36 27 bd 0f ae 95 bd a4 29 16 3e
       0.06167805 -0.04082371 -0.0730859 0.14664322
0003c0 4d a4 74 3d 52 4e 3f 3d d9 d2 05 bd 4c f6 7e bc
       0.059727002 0.04670555 -0.032671783 -0.015561651
0003d0 36 0d b3 3d 96 8e 21 bd 4f 2e 3c 3d 1b 81 af bb
       0.08742754 -0.03944262 0.0459426 -0.0053559667
0003e0 a3 f1 2b bd 40 da 26 3e aa 45 8c 3d 47 59 8c bd
       -0.04197849 0.16294193 0.06849225 -0.06852966
0003f0 eb bf 8c 3d a2 d8 82 3d e5 ce ab 3d 85 2d 46 be
       0.06872543 0.06388976 0.083890714 -0.19353302

lstm1.bias_ih_l0 f4 [256]
000000 44 c8 d5 bd 44 38 32 be 19 65 aa bd 93 e0 43 be
       -0.10438588 -0.17404276 -0.08320064 -0.19128637
000010 eb d8 09 be 40 0d 03 bc 16 54 a1 3d af aa ce 3d
       -0.13461654 -0.0079987645 0.07877366 0.10091149
000020 57 01 ee 3c 3e 6f 77 bd 01 fe c1 3c 89 3a 23 3d
       0.029053373 -0.060408823 0.023680689 0.039850745
000030 bd 33 ea 3d a3 0e e7 3d e6 05 48 be e4 e5 63 bd
       0.114356495 0.112820886 -0.195335 -0.055639163
000040 86 99 52 be 6c df 41 bc b0 9c 09 be ae 6c 1c 3d
       -0.20566377 -0.011833053 -0.13438678 0.038189583
000050 c4 b6 52 be 4d f3 46 be cd b0 86 bd 5b f0 82 be
       -0.20577532 -0.1942875 -0.06576691 -0.25574002
000060 ef 1c 1c be cf 0c 30 3d cd 78 b7 3d 4f 4f fd 3c
       -0.15245412 0.042980965 0.08958588 0.030921606
000070 47 d7 e2 3b 62 b0 1f be a9 87 61 3d b4 ac 58 bc
       0.0069226357 -0.15594628 0.055061016 -0.013224769
000080 14 15 10 be eb 42 67 be e0 b8 1b 3e 41 da 01 bd
       -0.1407054 -0.22584121 0.15207243 -0.031702284
000090 05 65 82 3d a5 e1 83 be 62 a1 0a 3c 20 b3 95 bc
       0.06366924 -0.2575809 0.008461328 -0.01827389
0000a0 3e 21 73 bd 36 e1 c3 bc 8e 78 dc bb 46 dd 67 be
       -0.059357874 -0.0239111 -0.0067282384 -0.22643003
0000b0 18 d8 06 be 22 61 f2 bd 6d 9a 9f 3b 80 fb 99 bd
       -0.1316837 -0.11834933 0.004870704 -0.07518673
0000c0 e7 b2 74 3d f5 ac eb bb be 01 3b 3d 73 4a fb bc
       0.059740927 -0.007192249 0.04565596 -0.030675149
0000d0 4d c0 fe bd 44 60 13 3e bf ad ee 3d 5b 32 d0 bd
       -0.12439022 0.14392191 0.11654233 -0.101658545
0000e0 bd fc b1 3d a7 08 27 be ee 1e 2d 3d ae 26 17 be
       0.08690784 -0.16311894 0.042265825 -0.14760849
0000f0 33 b8 04 be 2f c6 a0 3e ae 20 3d be 81 1c c8 bd
       -0.12960891 0.31401202 -0.18469498 -0.09771062
000100 e2 af 44 bd 2b 00 da 3d 89 2a c7 bd ee 71 37 bd
       -0.048019297 0.10644563 -0.0972491 -0.044786386
000110 f1 30 29 be 0c e9 ba bd 63 aa 6c bd bf e9 fe 3c
       -0.16522576 -0.091264814 -0.05777968 0.031117318
000120 da 24 7c bc 20 0f 9b bd 2e ed 00 3d dd 67 5b be
       -0.0153896455 -0.07571244 0.031476192 -0.2142634
000130 fc 7e a4 3d 57 43 04 bd d9 27 7a 3d a4 7c 03 3e
       0.08032033 -0.032290783 0.061073158 0.12840515
000140 98 20 0d be d6 8b 0b be bd 57 f2 3d 2a 50 3d bd
       -0.13781965 -0.13627562 0.11833141 -0.04621903
000150 d1 c5 a6 bd 16 fa 09 be 4e f0 a0 bd 1b 83 a0 3d
       -0.08143199 -0.13474306 -0.078583345 0.078375064
000160 50 87 08 3d 33 08 9c 3d 80 62 d6 3d 8e 92 24 3e
       0.03333217 0.076187514 0.10468006 0.16071531
000170 7a f4 f6 3c 16 e8 11 3e 86 92 84 3e 17 4f cb 3d
       0.030145872 0.1424869 0.2589304 0.099271946
000180 f4 ae c7 3d 24 05 5d be 33 a6 a2 bd 4f f9 ae bd
       0.097501665 -0.21583992 -0.07941856 -0.085436456
000190 b1 ab d6 3d a1 ee d7 bd 8f 1d fe 3d fc fd 1c bb
       0.10481966 -0.10543562 0.124079816 -0.0023955097
0001a0 ec b4 86 bd 33 69 59 bd 8c 42 c5 bd 13 cf 02 3e
       -0.06577477 -0.05307884 -0.096318334 0.12774305
0001b0 64 e7 18 be 2d 3b 9b 3c 38 00 cf bd d1 97 c9 bc
       -0.14932019 0.018949116 -0.101074636 -0.024608525
0001c0 65 89 78 3d a0 d3 5e bd 0f 40 1f bd 0f b4 32 bd
       0.060677905 -0.05440104 -0.03887945 -0.04362875
0001d0 5e 2b 14 3d 2b 9b 87 3d 43 6a 34 bc b9 90 a1 bd
       0.03617417 0.06621393 -0.011011663 -0.07888932
0001e0 fe fe 68 3d e6 fd dc 3d d9 d5 e6 bc 0f 4a 2d 3e
       0.056883805 0.10790615 -0.028178142 0.16922782
0001f0 50 5c 8c bd 06 cb 5d 3e 1a 45 b3 3d db 34 5e bd
       -0.06853545 0.21659479 0.087534145 -0.054249626
000200 eb 63 41 bb 47 bf b1 bd c8 84 7f bd 1b 5d 32 3d
       -0.0029509019 -0.086790614 -0.06238249 0.043545824
000210 f7 ed d5 bd fe 4d 1c 3d 56 6c ca ba cc d9 ed 3c
       -0.10445779 0.038160317 -0.0015443664 0.029034518
000220 06 4f 8b 3d ec 7a 96 b9 77 f5 5e bd 8e 07 b2 bd
       0.06802182 -0.00028701813 -0.054433312 -0.08692847
000230 4c 37 5a bd 3a 27 ee 3d d5 ff 2c 3e d0 67 dc bd
       -0.05327539 0.116285756 0.16894467 -0.10761988
000240 b9 53 8c bd af 2b 88 3b b3 f5 95 bb 48 72 3a be
       -0.06851906 0.004155598 -0.004576409 -0.18207657
000250 4f 6b c4 bc 05 c4 a9 bd 4a 17 23 3d 96 82 11 bd
       -0.02397695 -0.08289341 0.039817132 -0.035524927
000260 7a 2e a0 bd 04 81 a5 3d a8 1a d7 bc a9 00 18 be
       -0.07821365 0.080812484 -0.026257828 -0.14844002
000270 af 6e 3e bd 84 4b 4a bd a2 a1 8f 3d e5 03 e0 bc
       -0.046492275 -0.049388424 0.07013251 -0.027345607
000280 8d ad 41 bd 73 fb fa 3c ae 00 18 3d fb 54 1a 3d
       -0.04728465 0.030637478 0.037110023 0.0376787
000290 4d ef b4 3d b8 e3 2c bd 8f a0 e0 3d d9 a9 58 3d
       0.088347055 -0.042209357 0.10968124 0.052896354
0002a0 0a 57 9d bd 9c 20 45 bd 7e 6a ea bb 26 5d 02 3e
       -0.07682617 -0.0481268 -0.007153808 0.12730846
0002b0 42 09 c6 bc 78 e3 dc bc aa 8c 05 3e d1 01 4b 3d
       -0.024174336 -0.026963934 0.1304194 0.04956228
0002c0 93 14 a3 bc 6c ac c7 bd 4a 55 91 bd 03 c3 93 bd
       -0.019907271 -0.09749684 -0.07096346 -0.0721493
0002d0 d4 b8 03 ba 21 83 d7 ba 6a 55 4d bd 57 54 ae 3d
       -0.0005024795 -0.0016442278 -0.050130285 0.0851218
0002e0 5c 35 e8 bd 78 e8 3f 3d 36 be 99 bd 0f c0 0c 3e
       -0.113383025 0.04685256 -0.07506983 0.1374514
0002f0 b7 b2 8f bc 86 1b 51 3d 5e 26 70 bd 4e dd ff 3c
       -0.017541273 0.05105164 -0.05863034 0.031233456
000300 24 f7 9b bc 01 30 3a 3d 03 6d 58 bd 91 9a 8a be
       -0.019038744 0.045455936 -0.052838337 -0.2707105
000310 37 e9 22 be 45 2e 12 bc a1 a4 40 be 95 98 9b bd
       -0.15909277 -0.008922164 -0.18812801 -0.07597462
000320 bd 66 ae 3c db 46 9c bc 86 6e 19 3e d5 3d 08 bd
       0.021289224 -0.019076755 0.14983568 -0.033262093
000330 47 b7 c1 3d 40 d8 31 be 83 5b ce 3d ee 70 11 3e
       0.094587855 -0.17367649 0.10076048 0.14203236
000340 17 7d 94 bd c9 b2 af bd 5b ff 94 3d 27 77 55 3e
       -0.072504215 -0.085790224 0.07275268 0.20846234
000350 55 3a 50 3d 53 a5 96 be f4 71 a3 bc aa 00 f0 bc
       0.05083688 -0.29423007 -0.019951798 -0.029297192
000360 9f 67 44 bd 62 a2 74 3d 13 ed 18 3e 28 32 0a 3e
       -0.047950383 0.059725173 0.14934187 0.13495696
000370 b8 5d bf bd c5 c3 a1 bd 90 05 17 3e af 59 48 3d
       -0.09344047 -0.07898668 0.14748216 0.048913654
000380 8b 1d a5 3d dd e8 3c be f9 4d d3 3c 55 dd 8b 3d
       0.080622755 -0.18448205 0.025794016 0.06829325
000390 06 bf a2 3d 37 cb 50 3c 3a d9 31 be 6c d1 34 bd
       0.07946591 0.012743763 -0.17368022 -0.044145033
0003a0 ce 82 56 3d 3e 98 5c 3a e5 e8 17 be 7d cd 52 bc
       0.05237084 0.000841502 -0.14834936 -0.012866375
0003b0 24 7f c3 bd 3e 69 19 bd 0e ff d8 bd 8e 8c 68 bc
       -0.095457345 -0.037453882 -0.10595523 -0.014193667
0003c0 06 33 b8 3d f9 87 16 be 3d c7 4e 3c 8e 68 e2 bd
       0.08994107 -0.14700307 0.012620744 -0.110550985
0003d0 ff 80 0f bd 5c 31 9a bd 99 62 ff 3c 63 0c 9d 3d
       -0.03503513 -0.07528946 0.031174945 0.07668378
0003e0 8e 08 b8 bd 8a 47 7e 3d 13 6e 9a 3d fd 7f 8e bd
       -0.08986007 0.062079944 0.07540526 -0.069580056
0003f0 cc c3 38 be b5 05 50 bd 89 c5 81 bd 0b 58 89 3d
       -0.1804344 -0.050786693 -0.06336505 0.06706246

lstm1.bias_hh_l0 f4 [256]
000000 72 0c fb bc ec 75 bf 3c 21 82 41 bd 3e 75 4c be
       -0.030645583 0.02337166 -0.04724324 -0.199666
000010 0c 2b 07 bd 29 9a 30 3e f4 2c d2 3d 72 34 6a 3d
       -0.033000037 0.17246307 0.102624804 0.057178922
000020 dd c5 64 3d 24 c9 a7 bc d7 56 1a 3e e9 ca 81 bd
       0.05585276 -0.020481654 0.1507219 -0.0633753
000030 98 65 29 bd 28 f8 f1 bd f8 ba 44 3c bb 2c 64 bd
       -0.041356653 -0.1181491 0.012007467 -0.05570672
000040 5c d6 f8 3c 8a ad 74 bd 00 9d c6 bd e5 ab ab 3d
       0.030375652 -0.059735812 -0.09697914 0.08382396
000050 16 67 48 be d7 72 71 bd 9f ee 24 be d7 ad 14 be
       -0.19570574 -0.05894741 -0.16106652 -0.1451944
000060 81 c6 45 be 03 5f 5c bd c0 50 40 3e ab 22 09 3d
       -0.19314004 -0.053801548 0.18780804 0.033480328
000070 11 07 20 3d 50 c1 b5 ba 31 ae 44 3e 18 a2 9a 3d
       0.03906924 -0.0013866816 0.19207074 0.07550448
000080 72 93 5f be db c9 4a be a9 ba c0 3d f7 58 22 be
       -0.2183359 -0.19803564 0.094106026 -0.1585425
000090 43 c1 f7 3c 4e 45 aa bd f1 af 81 3d f7 ff 80 bd
       0.030243522 -0.08314 0.06332386 -0.062988214
0000a0 dd 12 00 be e9 9a 14 be 38 b6 8a bd 07 e6 4d be
       -0.12507196 -0.14512219 -0.06773037 -0.2010728
0000b0 95 35 b0 bd e3 c1 f0 bc 70 20 ff bc 36 d9 e1 bd
       -0.0860397 -0.029389327 -0.031143397 -0.11027758
0000c0 86 56 e7 bb 2e 46 a7 bd 5b ef 5f 3e 9f 61 67 bd
       -0.007059875 -0.081676826 0.2186865 -0.056489583
0000d0 a7 2a 35 be 7f 82 57 3e 84 63 82 bd 47 44 2e bd
       -0.17692052 0.21045874 -0.06366637 -0.042545583
0000e0 73 ef 02 bd 0f 21 94 bc 86 9d 1d bd 5c a9 73 bd
       -0.031966638 -0.01808217 -0.038480304 -0.059487686
0000f0 36 1e 44 be d0 ae 84 3e 81 5f f8 3b 17 ce 88 bd
       -0.1915215 0.2591462 0.0075797443 -0.066799335
000100 c8 a7 66 bd 41 b0 28 3e 6c 2c 28 be 89 ef 32 bd
       -0.056312352 0.16473486 -0.16423196 -0.04368547
000110 17 7d 7f bd 5d 51 d4 bd 39 fa 97 3d 25 9d 85 bd
       -0.062375154 -0.10367081 0.07420773 -0.065241136
000120 78 94 0a 3e fe 60 af 3d db da 87 3d 43 a5 24 be
       0.13533199 0.08563422 0.0663354 -0.16078667
000130 e8 64 61 3e 79 5f a6 3c e8 57 3e 3e 61 e1 00 3e
       0.22011149 0.020309197 0.18588221 0.12585975
000140 c8 3f 27 3d 65 7d 35 bd 5e 5d 4f 3e 2f 81 e6 3d
       0.04083231 -0.04430904 0.2025046 0.112551086
000150 24 2e e2 bc c3 d7 29 be 88 ca cd 3c 02 0e 05 bd
       -0.027609892 -0.16586213 0.025120988 -0.032484062
000160 ae 3c 96 bd 3b 1b 78 3e 8f b1 68 3d d8 ce 46 3e
       -0.073357925 0.24229138 0.056809958 0.19414842
000170 2d f8 08 3e 67 7b c0 3d bb 44 1e 3e 87 f2 8f 3d
       0.13375922 0.09398537 0.15455906 0.0702868
000180 49 e3 11 3e 91 e0 98 3b 4b f6 2d 3d ee 47 11 be
       0.14246859 0.0046654423 0.04247121 -0.14187595
000190 69 17 0a 3d e7 1a 31 bd b0 5e 12 bd 8e 52 39 be
       0.033713732 -0.043238547 -0.035734832 -0.18097898
0001a0 c5 75 af 3d 93 88 80 bc af 92 fa bd 1b 82 55 bd
       0.08567385 -0.015690124 -0.12235009 -0.05212603
0001b0 13 46 13 3b 21 eb c8 3b 61 ec 8c 3d d7 f8 08 3e
       0.0022472187 0.006131545 0.06881023 0.13376175
0001c0 f8 19 36 bd f9 53 d7 3c 3e 89 18 3d d0 8e 5d 3b
       -0.04445836 0.026285158 0.03724026 0.0033807047
0001d0 e6 1e 1f be 5d dc 7c 3d f3 b0 1a 3e 46 19 04 be
       -0.1553913 0.061733592 0.15106563 -0.12900266
0001e0 6d 3c b5 bd 66 6f 8d 3d 07 ee 13 3d b4 91 26 bc
       -0.08849416 0.06906013 0.036115672 -0.010166574
0001f0 d7 7e 0b bd 5d aa c2 3d 2c c5 ca bc ae f1 1d bd
       -0.03405651 0.095051505 -0.024752222 -0.03856056
000200 b0 11 9d bd 47 49 ef bd 75 e2 ca 3c 98 df bf bc
       -0.07669389 -0.116838984 0.024766186 -0.023422047
000210 90 23 60 bd 54 a8 df bc cb 83 b9 3c 90 61 9e 3c
       -0.054721415 -0.027301945 0.022645852 0.01933363
000220 be dd f0 bd 03 aa 74 bc 60 86 06 bd 7c 16 80 bc
       -0.11761044 -0.014933112 -0.032842994 -0.015635721
000230 b0 48 33 bc ac 62 a1 3d fc fe 2a bd 3c a1 0b bd
       -0.010942623 0.07880148 -0.04174708 -0.034089312
000240 0f 47 77 bc 9c fd ed 3d 73 16 a6 bd 0e 84 42 be
       -0.015092625 0.11620638 -0.081097506 -0.18995687
000250 62 1d e6 3d cf 80 ba bb 44 5e 0a be bf 44 af 3d
       0.11236073 -0.0056916247 -0.13512522 0.08558034
000260 e7 82 a8 bd ec 6e e2 3d 8e 90 98 3d 9b 3e 2f 3b
       -0.08228093 0.11056313 0.074494466 0.0026740197
000270 58 b5 89 3c ec 16 9a bc 06 dd 9a 3d 6d f4 20 3d
       0.016810104 -0.018809758 0.07561688 0.039295603
000280 96 f2 8b 3c 1b 4e 48 bd 4c 95 34 bc 65 ad b7 bd
       0.017083447 -0.048902612 -0.011021923 -0.08968619
000290 99 50 97 3d 61 85 6e 3d ea 8f 86 3c 20 06 66 bd
       0.0738842 0.05823267 0.016426045 -0.056158185
0002a0 9b 68 3b be 3e ff 06 bc 53 64 11 be 20 91 18 bd
       -0.18301623 -0.008239565 -0.14198427 -0.037247777
0002b0 59 90 99 bd 98 21 69 3d 73 3e 00 3e 6e db 24 3c
       -0.07498235 0.056916803 0.12523822 0.010062082
0002c0 d6 8f 53 be c6 25 f5 bd 28 ec 83 bd 74 e4 08 be
       -0.20660338 -0.11970095 -0.064415276 -0.13368398
0002d0 ce 1a b0 bd 60 a7 f2 3d 66 e6 eb bc 67 55 f5 3d
       -0.085988626 0.118483305 -0.028796386 0.1197918
0002e0 1e 16 4c 3d c4 7d fb ba 5a 1b 9c bd 26 2b 8d 3d
       0.04982578 -0.0019187261 -0.076224044 0.068929955
0002f0 3f 47 7c 37 f6 5d 4e bd a4 52 38 3c a3 00 7d bc
       1.5036959e-05 -0.050382577 0.011250172 -0.015442046
000300 4e 17 c0 3c 9e 17 82 bd b3 54 4f be d6 09 14 be
       0.023448613 -0.06352161 -0.20247154 -0.14456877
000310 c5 5c 53 bd 82 2a 94 3c dc b7 fe bc 41 fd 9c bd
       -0.051602144 0.018086676 -0.03109353 -0.07665492
000320 d6 cc ba 3d 0a 28 14 be 41 00 24 3e e2 45 30 3c
       0.091211006 -0.14468399 0.16015722 0.010758849
000330 e1 5b d1 3c 14 7b 13 bd 4e a0 23 3e 07 c8 0d 3e
       0.025556507 -0.03600605 0.1597912 0.13845836
000340 96 73 29 be bb 5d 19 bc ad 42 41 3e e6 f0 ea 3d
       -0.16547999 -0.009360726 0.18873091 0.11471729
000350 2a 77 09 be 94 72 ae bd c7 6a 14 be 86 0a 82 3d
       -0.13424364 -0.08517948 -0.14493857 0.063496634
000360 2c 19 2c bb be 02 29 3d 0f f5 a8 bd 2b e0 99 bc
       -0.002626012 0.04126238 -0.08249866 -0.01878365
000370 a4 72 03 3e dc 1a 11 be bd ce 36 3c a4 c4 96 3d
       0.128367 -0.14170402 0.011157689 0.07361725
000380 c5 1b 19 bd 1b 58 68 be 88 0c 2f bd b7 f1 a8 3d
       -0.03738 -0.2268986 -0.04273656 0.082492284
000390 6b 20 63 3d f2 8d 5d 3e c3 f7 93 bd d7 b5 28 3e
       0.055450838 0.21636179 -0.07224991 0.16475616
0003a0 e0 da 77 bd 06 e1 26 be e0 7e 6c bd ec 58 1e be
       -0.06051147 -0.16296777 -0.057738185 -0.15463609
0003b0 85 7e f2 bd 45 8b 70 bc 0d bc cd bd 42 45 eb 3d
       -0.11840538 -0.014681642 -0.100456335 0.11487819
0003c0 41 95 9e bd 27 85 7d bd b9 6d 38 bd 41 9e ff 3d
       -0.07743312 -0.061894562 -0.045026515 0.124813564
0003d0 51 66 08 be 05 7b 41 bb 86 b3 0e 3e 3a 14 b6 bc
       -0.1332028 -0.0029522788 0.1393567 -0.022226442
0003e0 d8 6b 8b bd c4 72 a2 3d ac cb 81 3c ef 5f f6 3d
       -0.06807679 0.07932046 0.015844189 0.12030017
0003f0 ea 11 1e be a2 27 73 bb c8 f3 15 be 6a 7e e5 bd
       -0.15436521 -0.003710248 -0.14643776 -0.11205752

lstm1.weight_ih_l1 f4 [256, 64]
000000 1c e6 79 bd 8d bc c3 bd 16 c2 34 3e 34 e1 1c be
       -0.061010465 -0.095574476 0.17652163 -0.15320283
000010 02 58 6d bd 43 8b 84 be 24 a2 b9 bd ac 0a d8 3c
       -0.05794526 -0.25887498 -0.09064129 0.026372276
000020 c1 81 b7 3d ce 37 22 3c c4 b8 d0 3d c2 86 39 3e
       0.089602955 0.009901 0.10191491 0.18117812
000030 6d 8a 3e 3c 19 54 2e bd 8b 6e a3 be f9 47 30 3e
       0.011629683 -0.04256067 -0.31920275 0.17214955
000040 22 2e 43 3e aa b4 91 be 4a 6d 26 3e 9a 4e 1e 3c
       0.19060567 -0.28458148 0.16252628 0.009662295
000050 13 63 81 be a6 11 71 bc d5 74 6b 3c 0b e4 e4 3d
       -0.252709 -0.01471368 0.014371117 0.11176308
000060 55 79 1b 3e 3d a3 b7 bd ea df 51 be 97 94 18 bd
       0.15183003 -0.08966682 -0.20495573 -0.03725108
000070 7e 41 e4 3d ca ed 18 3e ba 10 11 be db 75 f4 3d
       0.11145304 0.1493446 -0.14166537 0.11936542
000080 73 88 92 3d 8d ac 7b 3c a2 1c 61 be 9b 10 f5 bd
       0.07154932 0.0153609635 -0.21983579 -0.11966058
000090 41 6a 0b be 2a ca 9c be 27 32 1b be 15 35 63 3e
       -0.13614751 -0.3062299 -0.1515585 0.22188218
0000a0 5e 9c 6a bb 34 02 40 be bc dd 70 bc c5 e5 ab be
       -0.0035798769 -0.1875084 -0.014701303 -0.33573738
0000b0 3c c3 ac 3c 9d 9f 20 bb a4 9b 24 bd 9a 56 22 be
       0.021089189 -0.00245092 -0.040187493 -0.15853348
0000c0 b9 63 95 3d 4e 24 90 bc 30 3f 18 bd 91 d2 02 3e
       0.07294411 -0.017595436 -0.037169635 0.12775637
0000d0 88 bf 31 be 28 34 55 3e 3c 06 6d bd 51 77 14 be
       -0.1735822 0.20820677 -0.057867274 -0.1449864
0000e0 c6 33 9d bc 69 16 30 be 82 68 fe bc c9 f9 00 bd
       -0.019189727 -0.17196049 -0.031055693 -0.031488214
0000f0 b5 9b 88 bd 23 27 1a 3e 36 ae 39 be 7d 2d fe bd
       -0.06670324 0.15053992 -0.18132862 -0.1241102
000100 b5 f3 8d bc bb 99 80 bd 68 e2 8f bd 28 87 d9 bc
       -0.017328123 -0.06279322 -0.070256054 -0.026553705
000110 0c 55 f0 3c d9 e2 98 bd 83 5b 07 bc 49 47 50 bd
       0.029337429 -0.07465143 -0.008261564 -0.050849233
000120 73 08 e5 bc b2 c6 08 be dc 0f b9 bd 3b 12 bd bd
       -0.02795813 -0.13357046 -0.09036228 -0.09231993
000130 69 35 30 be 48 6b af 3d 7a 5c b9 3c ce c2 95 bd
       -0.17207874 0.08565384 0.022627104 -0.07312547
000140 66 63 3b bd 90 56 16 3e 45 79 a1 3d 8b fb 23 bd
       -0.04574909 0.14681458 0.078844585 -0.040034812
000150 3c 37 b8 3d c7 64 f8 bd a4 83 3d bd 13 78 30 be
       0.0899491 -0.12128597 -0.04626812 -0.17233305
000160 61 73 26 3e 2d 17 04 be 0f 4a bf 3c eb f0 07 be
       0.16254951 -0.12899466 0.023350744 -0.13275497
000170 8d a1 2d bc a1 b4 ab 3d 64 16 03 be ca d5 c6 bd
       -0.010597599 0.083840616 -0.1280151 -0.09708746
000180 4d ef 68 3e 18 58 5c 3d bf 58 f3 3d 71 c5 14 3e
       0.22747536 0.05379495 0.11882161 0.14528443
000190 d4 53 32 bd d3 14 84 3c 4b c2 09 3e 8c 06 25 be
       -0.043536976 0.016123211 0.13453023 -0.16115779
0001a0 2c 3e b1 bd 58 73 2f 3e b9 32 7f 3d 71 0f 0c 3d
       -0.086544365 0.17133844 0.062304232 0.034194414
0001b0 5c 05 e6 3d 63 05 46 3c ae 9a 67 bd b1 46 2b 3b
       0.11231491 0.012086245 -0.056544 0.0026134665
0001c0 40 f5 4f 3d 7d d6 50 3e 04 28 39 bd b4 ec 1e 3e
       0.050770998 0.20394321 -0.045204177 0.15519983
0001d0 2f ab 9d 3d dd 44 8d bd 8d a7 3e 3a 42 ff 25 3d
       0.07698666 -0.068979 0.0007272892 0.040526636
0001e0 5e 74 da bd b0 f8 1a 3e fa ee 19 bc 5e 2b f5 3c
       -0.106667265 0.15133929 -0.009395355 0.029927906
0001f0 e9 45 f6 3d e1 78 9a bd 71 5a 20 bc 01 8f fb 3d
       0.12025053 -0.07542587 -0.009787188 0.12283135
000200 d5 38 65 bb 3d 19 a5 3d 42 c8 7b 3d 73 21 03 be
       -0.0034976501 0.080614544 0.061470278 -0.12805729
000210 80 d7 15 3e 5e 0a 97 3a 2e cb e2 bd 5f 56 10 bd
       0.14632988 0.0011523475 -0.1107391 -0.03523862
000220 56 4a 39 3e df a4 83 3b 19 c7 09 be a7 21 ee bc
       0.18094763 0.004017457 -0.13454856 -0.029068781
000230 f0 c6 29 be 42 5f 1f be 3f 64 6e be 3b 2a 50 3e
       -0.16579795 -0.15563682 -0.23280428 0.2032861
000240 b6 2b fe bb d9 fb d3 bc 9e 7f 08 bd 33 1c aa 3b
       -0.0077566756 -0.025876926 -0.03332483 0.00519135
000250 92 9e 92 bd 31 45 29 3c 4f 87 12 bd 87 c9 50 3e
       -0.07159151 0.010331438 -0.03577357 0.20389377
000260 03 d5 18 3e 7f 11 64 bd ae 1a a1 bd 08 f4 c3 bd
       0.14925008 -0.055680748 -0.07866417 -0.0956803
000270 6c 05 c0 3d 1e 76 92 3d 9e 4b b4 3c 0f e2 1d 3d
       0.09376034 0.07151435 0.022008713 0.038545664
000280 cc 1c c5 3d c8 6f ff bd 3f 88 ad 3d f2 d2 c5 bc
       0.09624633 -0.124724925 0.084732525 -0.024148438
000290 24 52 07 3e f7 23 90 be 72 41 ec 3c 60 fc a8 3e
       0.13214928 -0.2815244 0.0288398 0.33005047
0002a0 e1 ba 4d 3d 4d 01 cf 3d d9 e4 83 bd dc f8 a6 bd
       0.05022705 0.1010767 -0.064401336 -0.08152935
0002b0 c3 1e 73 3d 3a aa 88 bd d1 c3 b3 3c 55 b3 14 be
       0.05935551 -0.06673093 0.021943958 -0.14521535
0002c0 7d a9 4b bd 34 e1 27 3e 38 79 14 3d c8 14 1d bc
       -0.049722183 0.16394502 0.036248416 -0.009587474
0002d0 08 b3 80 3d e6 5c 13 bc ad 87 06 be a9 8f d0 bd
       0.062841475 -0.008994317 -0.13137694 -0.10183651
0002e0 a1 8b 16 3e 33 9e 91 bc ac 6b 93 bd a6 dd 00 3d
       0.14701702 -0.01777563 -0.07198271 0.03146138
0002f0 ca 5d f4 bb dd 53 a4 bd 39 7a 70 be 5c d3 3b 3d
       -0.0074574696 -0.08023808 -0.23484124 0.045855865
000300 a3 0d b6 3d f4 c7 9c 3d 9f 58 c3 bd 23 8c 13 3e
       0.0888932 0.076553255 -0.095383875 0.14408927
000310 e9 c2 cf 3c 77 48 4e 3e b9 9f 2c 3e 35 14 1f be
       0.025361495 0.2014483 0.16857804 -0.15535052
000320 3b d3 5c bc 84 83 62 bb 73 86 0f be 16 f8 1e bd
       -0.013478096 -0.0034563253 -0.14016132 -0.038810812
000330 34 3c da bc d5 66 29 be 6d 1b 09 3e 09 89 4f be
       -0.026640035 -0.16543134 0.13389368 -0.20267119
000340 32 ee 35 be 14 27 9f 3e 9a 83 c5 bd 45 53 f1 bd
       -0.17766646 0.31084502 -0.09644242 -0.117834605
000350 a4 b6 8a 3d a5 bf 3a be 7a 32 7a be f2 2f e8 bd
       0.06773117 -0.18237169 -0.24433318 -0.1133727
000360 43 4d ab bb f1 1c 4e 3e 02 80 32 3e 02 7c 28 be
       -0.005227716 0.20128228 0.17431644 -0.16453555
000370 83 28 0e be 3a 50 85 bc e4 8e 4e 3d 6c 86 06 be
       -0.13882641 -0.016273607 0.05042924 -0.13137215
000380 38 78 66 3d f7 ca 8b bd 40 94 90 bd 9e 3a 99 3d
       0.056266993 -0.06825822 -0.070595264 0.074818835
000390 8c 87 c0 3c 26 94 ba 3e 54 b8 95 3d 74 0b 84 be
       0.023502134 0.36441153 0.073105484 -0.25789988
0003a0 62 7f 4b be 8e b8 23 3e fc ed fb bd 23 ab 0c 3e
       -0.19872811 0.15988371 -0.12301251 0.13737158
0003b0 30 cc 02 ba ee 5a 45 3e f7 91 3b 3d 33 fb c5 3d
       -0.0004989533 0.19272968 0.0457935 0.09667053
0003c0 4f af ec bd 76 f2 82 bc 07 19 f4 bd 65 e1 0b be
       -0.11556875 -0.015984755 -0.11918836 -0.136602
0003d0 c2 56 35 be 0a 94 dc bc 83 f0 08 be 3f 53 f3 3d
       -0.17708877 -0.02692606 -0.13372998 0.11881112
0003e0 72 5a 35 be 56 39 03 3d 52 90 8a be 36 84 2b 3e
       -0.17710283 0.0320371 -0.27063233 0.16749653
0003f0 02 1b 2d 3e 21 03 52 3d f7 a9 a0 bc e2 58 1d 3e
       0.16904834 0.051272515 -0.019612296 0.15365937

lstm1.weight_hh_l1 f4 [256, 64]
000000 14 4a 37 3e e4 49 fb bd 75 e6 f3 3d 7b 65 41 bd
       0.17899352 -0.12269953 0.119091906 -0.04721592
000010 bc 87 2c 3e 68 22 16 bd 1f 45 c9 bd a0 38 af 3c
       0.16848654 -0.036653906 -0.09827637 0.021389306
000020 ed 9c ed 3d b0 2f af 3d 61 14 7c 3e 64 b2 82 3e
       0.11602197 0.085540175 0.24617149 0.25526726
000030 fe 2e 18 3e 12 1c 22 bd 62 22 a2 3d 6e 4c f3 bd
       0.14861676 -0.03957755 0.07916714 -0.11879812
000040 a5 d6 0e bb 24 c5 2a be bc 24 65 bd 1e 87 84 be
       -0.0021795419 -0.16676766 -0.055943236 -0.25884336
000050 67 8c 21 3e f7 65 1c 3e d1 89 86 3d 06 a4 49 3e
       0.15776215 0.15273272 0.06569255 0.19691476
000060 9d 9a 7d 3e 16 b1 51 be 16 9b 68 3c 14 ca f3 3d
       0.24766012 -0.20477709 0.014197132 0.11903778
000070 15 06 0b bd 9e fa a7 3c be bb 5b bd 11 76 cf 3e
       -0.033941347 0.020505246 -0.05364584 0.40519765
000080 95 e1 e2 bd 2b 94 51 bd d9 57 48 be 70 08 95 bd
       -0.110781826 -0.051166695 -0.19564761 -0.07277
000090 9c 08 91 3d a9 a7 28 bd 02 b3 f9 3b 71 bb 38 3e
       0.0708172 -0.04117552 0.0076202163 0.18040253
0000a0 7e 17 2b be 48 6b 9f bd 7b 7d 17 be f0 97 bb 3d
       -0.1670818 -0.07784134 -0.14793961 0.09159839
0000b0 d8 69 03 be 9e 6e 0c 3e 97 e5 c0 3d e9 7d d4 3c
       -0.12833345 0.13714072 0.09418791 0.025938945
0000c0 47 6c f5 bd 2d 4d 57 3d 0c f9 17 be d2 50 8d 3e
       -0.11983543 0.052563835 -0.14841098 0.27600724
0000d0 19 42 21 be 73 bd b6 3e 8d 63 3a be b7 a8 b0 bd
       -0.1574787 0.35691413 -0.18202038 -0.0862593
0000e0 fb 8c 8d be 12 ef cf 3d cf 56 65 be ad 7d 78 3c
       -0.27646622 0.10153021 -0.22396396 0.015166682
0000f0 dc e5 b2 3d db 97 db bd 6a d3 1f 3e 48 8c 11 3e
       0.087352484 -0.107223235 0.15607992 0.1421367
000100 63 5a cf bd 81 bb f4 bc a0 d4 c3 bd bb 55 50 3d
       -0.10124662 -0.029874565 -0.095620394 0.05086301
000110 b9 8f 42 3d c0 4f 14 3d 6c 74 99 bc ff d7 7c bd
       0.047500346 0.036208868 -0.018732272 -0.061729427
000120 19 35 93 bd e1 ad 49 bc 37 9c ae 3c 62 1c 2a bd
       -0.07187862 -0.012309522 0.021314723 -0.041530974
000130 90 c8 28 bd 4d 0d e3 bc 5f 8e 05 3d d4 aa 1a 3e
       -0.041206896 -0.027716303 0.03260648 0.15104228
000140 c2 92 5f bd d6 ec c0 bd 0b 2b a7 3d a5 2a 17 bd
       -0.05458332 -0.09420173 0.08162507 -0.036905903
000150 c0 cd d7 bd 0e a7 54 3d 9a b1 a4 bd 22 24 98 3d
       -0.105372906 0.05191713 -0.08041687 0.07428767
000160 79 f4 fd 3c cb 11 97 3d 54 ec ba 3e b1 9f 0f 3d
       0.031000363 0.073764406 0.3650843 0.035064403
000170 7a 64 01 bd eb 16 ce bd d2 85 04 bc 16 af 21 be
       -0.031589963 -0.10062965 -0.008088546 -0.15789446
000180 55 ea b7 bd d7 11 29 bd 9f 7b 40 bd 26 89 a9 be
       -0.08980242 -0.04127678 -0.046992894 -0.33112448
000190 94 9b a6 3d c2 9b 90 bd e4 bd 21 be ca 37 a9 3d
       0.08135143 -0.070609584 -0.15795094 0.08262594
0001a0 14 4f 9f 3d 00 fd f8 bd 94 06 b8 3d a3 4f 7f 3d
       0.07778755 -0.12157631 0.0898563 0.062331807
0001b0 14 6e e2 bd 0a fd 03 3d 0c b6 40 3d 7a c6 8b 3c
       -0.11056152 0.03222374 0.047048613 0.017062414
0001c0 f9 37 20 3d 40 bf a6 bc 55 fb 43 bd 04 91 65 bd
       0.03911588 -0.020354867 -0.04784711 -0.0560465
0001d0 33 cd 50 3d 85 23 0c 3e 36 8a 10 be 48 29 dc 3d
       0.050976943 0.13685425 -0.14115223 0.10750061
0001e0 c3 ba 4e 3b 27 6d ec 3d 8f 5d bc bd 8e 98 88 3e
       0.0031544424 0.11544257 -0.091975324 0.2667889
0001f0 15 76 80 3d e6 a0 bc bd 14 7d 9f bb c5 69 22 bc
       0.06272522 -0.092103764 -0.0048672054 -0.009912913
000200 ef 6d b6 3d bb 65 5b bd f8 c1 09 3d ff 8f 9f bd
       0.08907687 -0.053563815 0.03363225 -0.07791137
000210 d3 c4 f0 3c 52 e7 0f be d2 c1 41 be a5 34 0c be
       0.029390728 -0.14053085 -0.18921593 -0.13691957
000220 2d a1 97 3d cc bb dc bd ac 18 c2 3c c3 9b 7f 3d
       0.07403789 -0.10778007 0.023693405 0.062404405
000230 ec 2b 99 3d 15 e1 99 bc ed 7b 3d 3b 01 1a e5 3d
       0.074790806 -0.018784085 0.0028912977 0.111866005
000240 dd e0 92 bd 6e 41 3f be 77 98 33 bb ce 2b a0 bd
       -0.071717955 -0.18677303 -0.0027404109 -0.07820855
000250 1c 98 3d 3e 01 7e 47 3e 60 6e d5 ba b6 a7 e7 3d
       0.18515056 0.1948166 -0.0016283505 0.11311285
000260 21 e1 b0 bd 2f 37 91 3d 25 cb 52 3e 5d 9d 1c 3d
       -0.0863669 0.070906036 0.20585306 0.03823601
000270 d5 78 89 bd c5 d2 35 be b6 8b 2a 3e 05 c4 9a bc
       -0.067125 -0.17756183 0.16654858 -0.018892298
000280 ee 18 a3 bd 6f 37 25 be 94 17 7c 3d 50 f1 a4 bd
       -0.07963739 -0.16134427 0.061545923 -0.08053839
000290 02 f5 08 3e 42 c3 ab bd 1d ec 51 3d ae 41 98 3d
       0.13374713 -0.08386852 0.051250566 0.074344024
0002a0 df 77 f0 3d 45 54 f2 bc ef 35 e4 3c 42 06 00 be
       0.117416136 -0.029581198 0.027857749 -0.12502387
0002b0 e2 b5 bc 3a 99 66 3d bd a6 99 b2 bb e5 02 5b be
       0.0014397467 -0.046240423 -0.005450445 -0.21387823
0002c0 7b 51 bd 3d 3f 13 49 3d f4 f2 cd 3c 6d f9 c1 3d
       0.09244057 0.04909062 0.025140263 0.09471402
0002d0 2c d5 06 be d5 57 4e 3e 1b b9 46 bc 3d 2c 69 3d
       -0.13167256 0.20150693 -0.0121290935 0.056926955
0002e0 47 34 c8 bc 09 c5 85 3d 3d 3f 37 bd 9c 80 e4 bd
       -0.02443899 0.06531722 -0.044738043 -0.11157343
0002f0 f6 db 20 be 6e 11 b2 3d 19 1b 58 3e 2b e1 8b 3e
       -0.15708908 0.08694731 0.21104087 0.27320227
000300 14 4f cd 3d 74 60 8f 3e 78 43 ba bc df ef ac bd
       0.100248486 0.28003275 -0.02273725 -0.08444189
000310 fa 44 2b bd 5f e3 59 bd 8e d2 cd 3b cc 20 b6 3c
       -0.041813828 -0.053195354 0.0062812036 0.022232436
000320 7d e5 90 bd 8d 8e 2e be 5d eb 0e bc c6 bb 3e 3e
       -0.070750214 -0.17046566 -0.008723107 0.18626317
000330 75 11 c2 bd 19 7c ea bd 33 13 14 3d 8a c1 d6 3d
       -0.09475986 -0.11449451 0.036151122 0.104861334
000340 33 bb 02 be 50 1e 65 3d 3c 64 99 3c a6 ba 97 bb
       -0.12766723 0.05593711 0.018724553 -0.0046304045
000350 8f 29 07 3e 09 35 12 bc 59 c9 47 be d3 02 a1 bc
       0.13199447 -0.008923777 -0.19510402 -0.019654667
000360 22 69 94 be 5d 7f da bd 33 96 34 3c 66 c5 b2 3b
       -0.2898646 -0.10668824 0.011022138 0.0054556606
000370 9c 68 33 3c f7 cd 60 be 6e 48 86 bb 9f 93 86 3d
       0.010950234 -0.2195357 -0.0040979898 0.06571125
000380 3b 85 b3 3d c0 e3 19 be db ab d2 bd 41 ef 00 3e
       0.08765646 -0.15028286 -0.10286685 0.12591268
000390 47 f1 08 3e b1 83 ec 3d f0 19 36 3d 4e c0 7a be
       0.1337329 0.11548556 0.04445833 -0.24487421
0003a0 74 02 b5 3d 45 ff a1 3d 48 72 ec 3c 85 b9 0c 3d
       0.088383585 0.07910017 0.028863087 0.034356613
0003b0 59 47 69 3e 53 4a bd bc c8 9c 7d 3d 30 b0 20 be
       0.22781123 -0.02310673 0.061917096 -0.1569221
0003c0 ea 83 f1 3d a5 ac c9 bd 68 d8 6d 3e ae 81 0d be
       0.11792739 -0.098473825 0.23227084 -0.13819
0003d0 dc d0 03 be ef f5 31 bc df 67 2b bd 48 59 7b 3e
       -0.12872642 -0.010861858 -0.041847106 0.24545777
0003e0 ad dd 26 3e 46 50 aa 3d 09 01 12 3e 7b fc d2 3d
       0.162955 0.08316092 0.14258207 0.10302063
0003f0 75 59 91 3c b5 c9 c1 3c d9 03 18 be d0 3d bd 3b
       0.017742852 0.023655752 -0.14845218 0.005775191

lstm1.bias_ih_l1 f4 [256]
000000 64 75 fe bd 10 9b a0 bd e4 19 9d 3b 53 d1 37 3e
       -0.12424734 -0.07842076 0.004794346 0.17950945
000010 35 8d 52 3c d2 0a 2f 3c e8 32 d9 3d f6 e2 b2 bd
       0.012851049 0.010683732 0.10605413 -0.087346956
000020 cd 48 da 3d 96 20 79 3c f8 fe a4 3d 3a aa dd 3d
       0.10658417 0.015205523 0.08056444 0.10823484
000030 ed 7a bc 3d 1a 12 e9 bd 8b ad aa bd 42 6f 3c 3d
       0.09203134 -0.11380406 -0.08333882 0.04600454
000040 92 d5 17 3e 5a fe 8b bd 61 0a 97 bd 96 bd 3a 3e
       0.14827564 -0.06835623 -0.073750265 0.18236384
000050 1d 3d bf bc 4f 44 d6 bd 37 53 91 3d ba 1c 20 3c
       -0.02334457 -0.104622476 0.0709595 0.009772474
000060 13 c1 49 3d 6e 33 d9 bb de 08 4a 3d ee 2f c1 3c
       0.049256396 -0.0066284453 0.049324863 0.023582425
000070 91 9e 8a bd 81 e3 7a bb e4 cc 7f bd f6 d6 20 3e
       -0.067685254 -0.0038282576 -0.06245126 0.15707001
000080 e0 13 b4 3b ce 25 ca bd b4 9d f5 3d 6d 90 14 3e
       0.0054955333 -0.09870492 0.1199297 0.14508219
000090 66 91 6c bd 9c 69 0b 3e ec 39 df bd d4 5c 94 3d
       -0.05775585 0.13614506 -0.108997196 0.07244268
0000a0 5b e5 74 bd cf 29 c3 3d 34 f9 3e 3d ce ec ca 3d
       -0.059789043 0.09529459 0.046624377 0.09908448
0000b0 51 01 fb 3d 74 12 6e 3d 4e f3 b7 bd 97 25 75 be
       0.122561105 0.058123067 -0.089819536 -0.2394012
0000c0 7f 87 1f be 39 65 43 3e 61 bc a1 bd df e6 3f bd
       -0.15579031 0.19081582 -0.078972585 -0.046851035
0000d0 44 a3 fb 3b 79 4c c4 bd b2 a9 b5 bd c0 fe bc bc
       0.007679375 -0.095848985 -0.088702574 -0.023070693
0000e0 6b ba e3 bc 35 a5 dc 3d 25 e0 c1 bd b5 2b fe bd
       -0.027798852 0.10773698 -0.0946658 -0.1241068
0000f0 ae cb 91 bd 0c 57 90 bd 1c d8 23 be 61 ef 1f bc
       -0.07118927 -0.07047853 -0.16000408 -0.009761662
000100 ae fb 44 3d ad d9 d1 bc 20 5a ed 3c 69 33 a0 3e
       0.048091583 -0.025616491 0.028973639 0.31289223
000110 dd 16 4c 3e d1 7e 6e 3d d9 ef ad 3d ad f0 90 3e
       0.19930597 0.05822641 0.08493013 0.2830862
000120 c9 c7 33 3e 3d b2 ae bd 18 7d 2e bc 53 84 25 3e
       0.1755668 -0.0853009 -0.010649942 0.16163759
000130 db 94 fc 3d 24 7c 46 bc f6 1f 4a 3d 45 35 cd 3d
       0.123330794 -0.012114558 0.049346887 0.10019926
000140 fe 74 80 3e 6c 1b 2e 3e 76 12 21 3e 7e 55 8f bc
       0.25089258 0.17002648 0.15729699 -0.01749682
000150 ef da 10 3d fb 1d 12 3e c7 62 0f 3e 57 d3 16 3e
       0.03536504 0.14269249 0.14002524 0.14729057
000160 dc 8e 93 3d 4f 77 c3 3d cd 1a 53 3e 08 a0 02 3e
       0.07204983 0.09544241 0.20615692 0.1275636
000170 40 e3 0d bd 75 48 4d 3e 3d a9 08 3e 3b 07 29 3e
       -0.03464055 0.20047171 0.1334581 0.16506664
000180 00 cc cd 3c ff 05 2a 3e 80 cc 40 3d b7 71 4e 3e
       0.025121689 0.1660385 0.047070026 0.20160566
000190 35 70 fb bc 61 42 ca 3d 5d 4b 08 3e b5 dd 8e 3d
       -0.030693153 0.09875942 0.13309999 0.06975881
0001a0 c3 a6 87 3e aa 61 b7 3a 89 49 ed 3d 90 ca 13 3d
       0.26494417 0.0013990898 0.11586291 0.03608185
0001b0 77 ed b6 3c 00 96 43 3b 4a 01 b1 3d 2f 24 d9 3d
       0.022330029 0.0029844046 0.08642824 0.106026046
0001c0 9c e0 b3 3d 0d ca b6 3e ce 08 1c bb 1b 62 13 3e
       0.08783075 0.35701028 -0.002380896 0.14392893
0001d0 2e 59 1c 3d 74 bb d8 3d c7 68 cd 3c 03 92 18 3e
       0.038170986 0.10582629 0.025074376 0.14899449
0001e0 58 63 c6 3d d9 20 4d 3e 19 36 ff 3d fe 40 2e 3d
       0.09686917 0.20032062 0.1246149 0.04254245
0001f0 d6 b3 d6 bd a6 30 02 3e 50 46 62 3e 93 59 f7 3c
       -0.1048352 0.1271387 0.22097135 0.03019408
000200 bf 76 83 3d 08 98 d8 3d b1 06 62 bc 8d 6a 81 3d
       0.064191334 0.10575873 -0.013795541 0.06319151
000210 1f 43 76 bd 3a fc 1f bd f1 b3 8c 3d fe bb 11 3e
       -0.060122605 -0.0390589 0.068702586 0.1423187
000220 b7 aa bb bd 3f 91 0e 3e b9 43 56 3c 20 e9 51 3d
       -0.09163421 0.13922594 0.01307767 0.051247716
000230 15 53 cf 3d c7 c5 be bd 52 6c 5e bc e9 f5 d2 3c
       0.101232685 -0.09315067 -0.01357563 0.025752025
000240 a0 80 3d bd bd c2 12 3d 22 de 0a bd 44 ce 0e 3d
       -0.046265244 0.03583025 -0.03390325 0.03486468
000250 41 22 d4 bd e9 57 5c 3d f2 52 62 3d 4d 99 c2 3d
       -0.10358096 0.053794775 0.055254884 0.09501896
000260 7b 48 03 3e 1c d7 89 bd 16 ff f4 bb 2f 8e b1 3d
       0.12820618 -0.06730482 -0.0074766977 0.086696975
000270 c2 a0 d4 bc 07 78 cb bd cc 43 40 3d 32 b0 93 bc
       -0.025955562 -0.09935003 0.046939656 -0.018028352
000280 84 bd a1 3b f2 7b 9c bd 77 36 36 bc c6 d4 81 bd
       0.004935922 -0.07640828 -0.011121384 -0.063394114
000290 b6 4a 82 3d 89 50 0c bd ce 5a 67 3d a2 36 1b bc
       0.06361906 -0.03425649 0.056483082 -0.009473475
0002a0 ee 10 26 be 5b 85 06 3e fd aa 9a 3d 2b 28 d4 bd
       -0.16217396 0.13136809 0.07552145 -0.10359224
0002b0 51 2e 13 3e 30 8b af 3d 73 ee 91 3d ea 9e f7 3d
       0.14373137 0.0857147 0.07125559 0.12090857
0002c0 04 0f 0b 3d 59 51 4e 3d 54 40 17 3d bb 1b ee 3d
       0.033949867 0.050370548 0.036926582 0.11626383
0002d0 2e 05 cf 3d 5b c2 0b 3e eb 25 e2 3c 0b e9 c2 bd
       0.1010841 0.1364836 0.027605971 -0.09517106
0002e0 ae 32 10 bd 0b 7e 16 bb 0b 7b e5 3d 5c 5f f4 bc
       -0.035204582 -0.002296331 0.11205109 -0.029830627
0002f0 92 fc 17 bd 12 74 bf bd 66 bf 41 bc d3 64 84 bd
       -0.037106104 -0.093483105 -0.011825418 -0.06464543
000300 80 d6 2b 3e 3f 8a 9e 3d ac ef 40 bd d4 9d 16 3e
       0.16781044 0.07741212 -0.04710357 0.14708644
000310 22 b7 4d 3d 32 ae 7a 3c 34 c5 4c 3e de 3f d7 3d
       0.050223477 0.01530032 0.19997102 0.105102286
000320 59 00 72 3e 69 08 01 3e e5 47 af bd 53 c3 8e 3e
       0.23632945 0.12600864 -0.08558635 0.27883396
000330 3d ce 38 3e 03 86 27 3d 9d 8d 3b 3e bc 28 98 3d
       0.18047424 0.040899288 0.1831574 0.074296445
000340 2b 9d 31 3e ac 70 4b 3d 97 c5 f8 3d 15 60 0a 3d
       0.17345111 0.049668 0.12147062 0.033783037
000350 da 24 7f bb 36 66 c1 3d 2b 29 6f 3e 46 26 07 3e
       -0.0038931877 0.09443323 0.23355548 0.13198194
000360 e3 14 96 3d b7 61 a5 3d f8 28 6f 3e dc 3d 1d 3e
       0.073282026 0.08075278 0.23355472 0.15355629
000370 f3 23 ff 3d 02 21 60 bd b3 3e 09 be 31 8e 98 3d
       0.12458029 -0.05471898 -0.13402824 0.07448996
000380 fb ec 45 3e e1 73 1d bd 98 57 6c 3e a7 0a a0 3e
       0.19328682 -0.03844059 0.2308029 0.31258127
000390 d5 e3 00 3d a7 3e 7d 3e a4 25 59 3e 3e 9d 7e 3d
       0.031467278 0.24730931 0.21205765 0.062161677
0003a0 d3 f1 b5 3d 3f 8c 9b 3d a5 4f 90 39 1b 65 99 3d
       0.08884015 0.07595109 0.0002752516 0.074899875
0003b0 e4 63 fc 3d c6 53 08 bc 92 d7 40 3e 25 c1 85 bd
       0.1232374 -0.008320754 0.18832234 -0.0653098
0003c0 ee 5a d8 bc 51 5c 8d 3e 54 94 dd b9 2b 46 15 3d
       -0.026410546 0.27609494 -0.00042262918 0.03644387
0003d0 b2 83 02 3d aa a1 f3 3d a8 fb 0a 3e 17 c7 44 3e
       0.031863876 0.11896069 0.13572562 0.19216572
0003e0 a2 d0 9a 3e b6 3b ed 3d ca 18 15 bc 16 bc 29 3e
       0.302373 0.115836546 -0.009100148 0.16575655
0003f0 3c 92 e6 3d 6d 19 11 3e a4 ec 62 bb 46 96 53 bd
       0.11258361 0.14169855 -0.0034625912 -0.051656984
