Zadanie2/best_model.pth (torch, 805874 bytes, 10 tensors)

lstm1.weight_ih_l0 f4 [512, 2]
000000 40 ee 04 3c 4a ac a4 bc 17 dd a4 bc 3c 4c 64 bd
       0.008113444 -0.020101685 -0.020124955 -0.055736765
000010 0d 11 cd bd 34 3d 8a bc c3 8f 2a 3d 16 0c 7d 3d
       -0.10013018 -0.016874887 0.041641008 0.061779104
000020 14 43 3a bd 61 21 0a bd 7f d8 88 3d 6f 9f 60 3d
       -0.045474127 -0.03372324 0.06681918 0.054839548
000030 06 7c 60 bb bd e3 88 3d 14 f5 c5 3d 7f 1f 86 bd
       -0.0034253611 0.06684063 0.096658856 -0.06548976
000040 a4 5e aa 3c 0b 99 28 bd f2 f6 ed 3d cd 14 dd 3d
       0.020797081 -0.04116158 0.11619367 0.10794983
000050 3e af b3 3c 67 9c 53 bd 09 80 4e 3c 13 20 96 3d
       0.021934148 -0.05166283 0.012603768 0.073303364
000060 9d eb 24 3b 73 60 f3 bc c7 e0 0a 3d 42 63 52 bd
       0.002516485 -0.029709077 0.03390577 -0.05136419
000070 d0 c8 45 bd 30 a8 3f bd 8e ba 92 bd 4f 89 94 bd
       -0.048287213 -0.046791255 -0.07164489 -0.07252752
000080 89 79 95 3d d9 d2 53 3d b6 30 ca 3d c3 23 0f 3d
       0.072985716 0.051714752 0.09872572 0.034946214
000090 b5 1e c9 3d 7b 59 1a bd 52 1f ad 3d f5 91 aa 3d
       0.0982031 -0.03768299 0.084532395 0.0832862
0000a0 42 5f c7 3d d0 f7 01 3e f0 9e 80 3d 90 21 68 3b
       0.09734966 0.12692189 0.06280315 0.0035420395
0000b0 dc 09 23 bc a1 10 a1 3d c2 87 3d bd bf 04 51 bd
       -0.009951081 0.078645 -0.046272047 -0.051029917
0000c0 2b 1d 98 bd 80 ef e7 3c 14 1c 48 3d 41 78 16 bd
       -0.07427438 0.028312445 0.048854902 -0.036735777
0000d0 72 87 22 3d 80 7b 91 bd a6 13 04 3d 14 1f 57 bd
       0.039679952 -0.07103634 0.0322453 -0.052519873
0000e0 6e c0 29 bc 23 df e7 bb 2e f8 11 bc 0a 4d 1b bd
       -0.01036082 -0.0070761605 -0.008909268 -0.037915267
0000f0 fe 00 9d 3d a4 41 5f bc 69 7b 6b 3d ab 55 5b bd
       0.07666205 -0.01362649 0.05749074 -0.053548496
000100 2c f2 ce 3d 7a da 2a 3a 01 76 80 bb 81 d4 9c bc
       0.10104784 0.0006517541 -0.003920317 -0.019144299
000110 2c 2f cf 3d 81 6e d9 bc 04 36 93 3d 3a c9 c2 3c
       0.10116419 -0.02654195 0.07188037 0.023777593
000120 27 99 39 3d 2e bf 79 3d 4e 9e bf 3d 16 37 59 3d
       0.045312073 0.06097334 0.09356366 0.05303105
000130 a3 d2 70 bd 6e b7 f9 bb 99 56 3a 3d d6 ca 5c 3d
       -0.05879463 -0.0076207435 0.045492742 0.053904377
000140 dd 27 4f bd 34 6a e6 bb 96 5d 4e bd de 9a a0 bc
       -0.050575126 -0.0070317034 -0.05038222 -0.019605096
000150 27 89 a2 bd 63 a2 c6 bd fe a9 60 bd ae e7 17 bd
       -0.07936316 -0.096989416 -0.054849617 -0.03708618
000160 f6 67 d7 3c 80 5b 89 3d 0a c5 fb 3c 0d 9c f4 3b
       0.02629469 0.06706905 0.030733604 0.0074648918
000170 cc 13 15 3d a0 9f fd 3d 1e 02 78 3d f1 f2 36 39
       0.036395833 0.12383962 0.060548894 0.00017447375
000180 5d 47 ce bc 93 9a 24 bd 22 b6 92 bd 41 8f a1 3a
       -0.025180513 -0.040186476 -0.07163645 0.0012326018
000190 c1 97 e0 bb 37 62 bf bc 3d a1 45 3d 9d 8d 13 bd
       -0.006854028 -0.023362262 0.048249472 -0.036023725
0001a0 77 98 7c bc 8a 61 b7 3d f0 10 e6 3d e3 76 ca 3d
       -0.01541721 0.08954151 0.11233699 0.09885957
0001b0 4c 81 83 bc ce 2b 25 3d ad 37 ac bc c7 b6 2c bd
       -0.016052864 0.04032498 -0.021022642 -0.042166498
0001c0 7f 99 1f bd ac f3 21 bd 6f d5 07 3c 69 3c 3c 3d
       -0.038964745 -0.039539024 0.008290633 0.04595605
0001d0 29 a5 ab 3c 71 7d c5 3d 5f 51 f9 bc ab 40 9a 3d
       0.020952778 0.09643067 -0.030434309 0.07531866
0001e0 2e 83 83 3d 11 80 13 3e 20 6d 64 bd fe 30 a7 3d
       0.06421505 0.14404322 -0.055768132 0.081636414
0001f0 3e 2c 84 3c 4a 22 57 bd 01 ea d6 3b 88 65 9f bd
       0.016134378 -0.052522935 0.006558657 -0.077830374
000200 29 34 ee bc 08 52 4d 3c 82 05 21 be 2c 73 4a be
       -0.029077606 0.012531765 -0.15724757 -0.19770497
000210 59 f7 24 bc 77 56 85 bd 26 f2 95 3d 99 5b 15 3d
       -0.010068738 -0.065106325 0.07321577 0.036464307
000220 51 f5 1b 3d 02 e6 e3 3c 7e 7d 0e bd a3 c1 12 bd
       0.03807575 0.027819637 -0.034787647 -0.035829198
000230 55 72 95 3d b7 ba bb 3c e5 c4 c0 3d e2 43 1a 3d
       0.07297198 0.022916181 0.09412555 0.037662394
000240 d3 37 b7 3d c0 7b ed 3d 3f c0 be 3d 17 0e 20 3e
       0.089461945 0.11595869 0.09314012 0.15630375
000250 0e 1c 70 3d 28 06 15 3d 6b 2b c9 3d 91 7f ca 3d
       0.058620505 0.036382824 0.098227344 0.098876126
000260 d7 2d 89 3d f6 eb ea 3c 77 d8 1b bd c1 43 95 3c
       0.066981964 0.028676968 -0.038048234 0.018220784
000270 98 14 98 bd 86 3f 8e 3d de ae 2d 3d 31 d2 7c bd
       -0.07425803 0.0694571 0.042403094 -0.06172389
000280 9f ea 12 bb f4 22 a4 bc 53 ed df 3c fd 40 a9 3d
       -0.0022417677 -0.020036198 0.027334845 0.08264349
000290 48 4e 9e bd b9 f2 64 bd 09 14 9c 3d 77 fd da 3c
       -0.07729775 -0.05589554 0.07621009 0.02673219
0002a0 e1 e5 1f bc e9 ed 65 bd 47 fd 0f 3d 11 5d 99 3b
       -0.009759397 -0.056135092 0.035153653 0.004680284
0002b0 23 5c bc 3c de f0 a1 3c 1b 0b 8d 3d b7 93 b0 3d
       0.022993153 0.019768175 0.06886884 0.08621924
0002c0 a7 4f d2 3b 24 61 b0 3d 89 e9 82 bd 16 15 9a 3d
       0.0064181867 0.08612278 -0.063921995 0.07523553
0002d0 84 d2 b1 3d 57 c7 e4 3d 40 68 ae bd 2d 8c c6 bb
       0.08682731 0.111708336 -0.08515978 -0.0060591907
0002e0 e1 6c c1 3d 25 5a 9f 3d 56 6b bd 3c 97 e4 14 bb
       0.09444595 0.077808656 0.02312247 -0.0022719258
0002f0 5a 63 11 3d 29 ce b8 3c 1c 1e 9c 3d af bf 95 3d
       0.03549514 0.022559242 0.076229304 0.07311951
000300 9d 4e a8 3c 03 f8 54 3d 57 cc fc 3d cb 4a b5 bb
       0.020545298 0.051994335 0.12343662 -0.0055325977
000310 24 d2 6a 3c 9a 39 73 3d a2 5c 28 bd f9 6e 62 3c
       0.014332328 0.059381105 -0.041103967 0.013820403
000320 7a 3c 65 3c 6b 88 f6 bc 16 6d 66 3d 9f 8e 97 bc
       0.0139914695 -0.030094346 0.056256376 -0.018500624
000330 fd ad 9f 3d 74 af 83 bd df 0d f4 3d 9a cc f0 3d
       0.077968575 -0.064299494 0.11916708 0.11757775
000340 ce 5b c6 bd 96 eb 64 bc 0e 70 38 bb 9e 89 4a 3c
       -0.09685479 -0.013972184 -0.0028142962 0.012361912
000350 6a e7 af bc cb 58 2c 3d b5 76 f4 3d d9 38 7a 3c
       -0.021472652 0.042076867 0.11936704 0.015272343
000360 c1 42 14 bc 62 03 ad bc 2b e9 05 3d 94 a5 d0 3c
       -0.0090491185 -0.021119777 0.03269307 0.025469579
000370 74 79 39 bd 6e 6a 00 bd 0f 17 86 3c 2c b0 84 3d
       -0.045281842 -0.0313515 0.016368417 0.064789146
000380 aa 28 08 3d 7a 43 83 bd 93 67 ec 3d 7d bc 10 3e
       0.033241905 -0.064093545 0.11543193 0.14134403
000390 1e c1 d6 bc 15 25 90 bd 86 88 04 3c c1 66 ba 3c
       -0.026215132 -0.07038323 0.00808919 0.022754075
0003a0 9a bb 77 bd 3f 3b 87 3d 0f 22 61 3d 9a ed 0d bd
       -0.060481645 0.06603097 0.05496412 -0.034650423
0003b0 a6 3d ad ba be 36 9c 3d e8 40 7c 3d f0 ad 9d 3d
       -0.0013217225 0.07627629 0.061585337 0.076991916
0003c0 85 f7 4c bd e0 45 0e 3d 15 ff 98 3d 51 ce 92 bd
       -0.05004074 0.034734607 0.07470528 -0.07168258
0003d0 7f c9 e5 3c be 7d aa bd 41 c9 9f 3d b6 7a 79 3d
       0.028050182 -0.08324765 0.07802058 0.060908042
0003e0 fd 5e b4 bc 5c 55 85 3d 71 62 39 bd 84 e5 78 3d
       -0.02201795 0.06510422 -0.045259897 0.06076576
0003f0 18 f5 03 bd 39 48 48 bd e0 00 ef bc d8 5d 06 bc
       -0.03221616 -0.048897002 -0.029175222 -0.008201085

lstm1.weight_hh_l0 f4 [512, 128]
000000 b9 4f 6f 3c 0f 8b 75 bc 70 82 4a bc 36 91 e9 3d
       0.01460641 -0.014986767 -0.0123602 0.1140465
000010 21 20 d0 3d 4b 94 90 3d 00 fa 86 bd 90 40 cc bc
       0.10162378 0.07059535 -0.065906525 -0.02493313
000020 2d 6c 9b bd 4c 70 c8 3c 49 8c c1 3d 04 22 54 bc
       -0.07588992 0.02446761 0.094505854 -0.012947563
000030 f9 30 49 3d 09 38 b3 3d 8a ab 9c bd 33 78 cd bc
       0.04911897 0.08750922 -0.07649906 -0.02508173
000040 5b 0f 4d 3d 91 1e 0d 3c 6b f7 0c 3d 6b b4 22 3e
       0.050063472 0.008613245 0.034415644 0.15889136
000050 95 69 fd 3b 66 e9 3c 3d 16 4f e8 bd 9f 6e 20 bd
       0.0077335336 0.046121024 -0.113432094 -0.039167996
000060 07 5c 05 3d 86 c9 80 3d 02 9c 1c 3d 30 49 00 3e
       0.032558467 0.062884375 0.03823472 0.12527919
000070 cf 20 74 bb 1a 92 ac bd 9d 5c 18 3c 10 35 35 3c
       -0.0037251 -0.08426304 0.0092994245 0.011060014
000080 31 55 14 bd 5b 3a 4c 3c ba 28 13 3e 19 77 1c be
       -0.036214057 0.012465085 0.14371005 -0.15279807
000090 04 94 5b 3b fb e1 86 3c 7a 4d a2 bc b8 b1 ad bb
       0.0033504972 0.016465178 -0.019812334 -0.0053007267
0000a0 b1 d1 e0 bc 22 f5 0c 3e 5e 15 26 3d af 30 57 3d
       -0.027443739 0.13765386 0.04054772 0.052536663
0000b0 59 30 78 3d 97 fe 4b bd af 6e be 3c e5 e7 77 bd
       0.060592983 -0.049803343 0.023246137 -0.060523886
0000c0 8d c5 a4 bb a3 29 11 be c3 2c 04 3d 4e 23 85 3c
       -0.0050284327 -0.1417604 0.03226925 0.016252186
0000d0 09 bc 08 be 13 5b 09 3e 97 ce cc 3d 14 5b be bd
       -0.1335298 0.13413648 0.100003414 -0.092947155
0000e0 d5 2d 77 3d 36 1e 5f 3c 11 fc 3e bd fb 62 92 bc
       0.060346443 0.013618043 -0.046627108 -0.017869463
0000f0 3f d9 b8 3b 8b f1 11 3d 1d 90 42 bc 9a a6 e1 bd
       0.005641132 0.035630744 -0.01187518 -0.11018105
000100 42 1a b2 3c a7 39 e7 3d 62 51 58 3c b2 a7 0f be
       0.021741036 0.11290293 0.013202997 -0.14028814
000110 87 b4 0c 3d 33 84 d0 3c ea b5 06 3d fc 11 81 3d
       0.03435185 0.025453662 0.03288833 0.06302258
000120 16 03 1f bc 3b cc 23 bd 70 a3 b4 b9 51 e2 1a 3e
       -0.009705326 -0.03998969 -0.00034454046 0.15125395
000130 eb e0 97 bc f2 4d 00 3d f1 2c 27 3d 76 ae 0d 3e
       -0.018539866 0.031324334 0.040814344 0.13836083
000140 19 06 88 bb 92 9e d7 bd 46 bb a0 bd 05 1c 73 3c
       -0.0041511175 -0.10528292 -0.078482196 0.014838223
000150 2d 6e 75 bd ff 72 85 bd 3a 13 28 3c ac f9 31 bd
       -0.059919525 -0.065160744 0.01025849 -0.043450996
000160 af b2 af 3c f7 c3 83 bd bc 2e 92 3c fa 88 aa bd
       0.021447508 -0.06433862 0.01784455 -0.083269075
000170 8f ba d9 3d a9 15 cc bd 99 11 c1 bd 94 1a 31 bc
       0.10631286 -0.09965069 -0.094271846 -0.010809559
000180 89 71 2e bd cf ed 90 3c a8 a9 62 3d ef 36 bf 3d
       -0.042588744 0.017691521 0.055337578 0.093366496
000190 ed 3e 1d 3d 6e d1 87 bb a3 26 98 3c cc 1d 03 be
       0.03839009 -0.004144839 0.01857311 -0.12804335
0001a0 aa a7 65 3d 62 3f 51 bd 94 59 9b 3d c1 97 09 be
       0.0560681 -0.051085837 0.07585445 -0.13436796
0001b0 93 95 69 bd 00 6e 9f 3c 62 37 8c 3d 6b c4 fa bd
       -0.05702741 0.019461632 0.06846501 -0.12244495
0001c0 e5 d2 ad bc 96 f7 66 3b ad 4c 54 bd 2e 36 af 3d
       -0.021218726 0.0035242788 -0.051830936 0.08555256
0001d0 06 eb 68 3c fb 45 a9 3c 71 cb 5b bd c6 53 e2 3d
       0.01421619 0.020663252 -0.053660814 0.11051135
0001e0 04 0d 91 bd 2e 99 08 bd 28 4b 56 3d 89 8f c1 bd
       -0.07082561 -0.03334921 0.05231777 -0.09451205
0001f0 65 d8 c3 3d 7b 13 4a bc 21 a2 d4 3d 2b 78 9a bd
       0.09562758 -0.012333746 0.10382486 -0.075424515
000200 ce 7a 7c 3c 38 5e 15 bd 5f f0 97 bd 54 bd c7 3d
       0.015410138 -0.036466807 -0.07418894 0.09752908
000210 d9 c1 7e 3c be dd a7 3d b8 6a e3 3d 9d 55 50 bd
       0.015549147 0.08196591 0.11104339 -0.050862897
000220 99 9d 51 3d 99 7e 37 bc 9a 26 a2 bd 2c 0f b1 3d
       0.051175687 -0.011199617 -0.07917519 0.08645472
000230 55 67 25 3d 46 91 b8 3d 60 9b 55 bd 88 68 c8 3d
       0.04038175 0.09012084 -0.05215013 0.09785563
000240 7a c1 95 bd 60 c5 15 3d 7c 0b 31 3d 46 e6 67 bd
       -0.07312293 0.036565185 0.043223843 -0.05661609
000250 e4 a7 5a bd f8 be 93 bd ae 68 d0 3b 07 01 b6 3d
       -0.05338277 -0.07214159 0.006360135 0.08886915
000260 36 96 9e 3d d1 bc a9 3d a5 c0 19 3d c0 ac ac 3d
       0.07743494 0.08287967 0.037537236 0.08431387
000270 2c 86 ce 3d 72 8e e3 3d 7a 87 94 bc 9a 56 af bc
       0.10084185 0.11111154 -0.018131007 -0.0214036
000280 e3 d7 8b bd e5 30 52 bd 59 91 67 bc 42 78 86 3d
       -0.068282865 -0.05131616 -0.014133775 0.06565906
000290 73 f1 71 bc 12 8c 25 bd 09 08 9a 3c a3 63 62 3d
       -0.014767039 -0.040416785 0.01880266 0.055270802
0002a0 91 fb 80 bd 14 a3 3c 3d ce 7f 8a bc 02 d0 07 be
       -0.062979825 0.04605396 -0.016906645 -0.13262942
0002b0 b8 3c 0e 3d a2 cd b6 bd 2b f5 2b bd 50 f2 49 3d
       0.034725875 -0.0892594 -0.041981857 0.049303353
0002c0 f6 63 7f bd 9c cd 77 bd 89 81 10 3c 83 79 83 bb
       -0.06235119 -0.06049882 0.008819946 -0.004012288
0002d0 7a 0b ad 3c 34 b3 90 bc dc db 7e bd cb 63 e0 3b
       0.021123637 -0.017663576 -0.062221393 0.0068478337
0002e0 56 69 9e 39 45 d5 d4 3c 8e 5e 10 bd 7a 78 41 3c
       0.0003021459 0.025980601 -0.035246424 0.011808509
0002f0 8c 0b 92 bd ba 77 a3 3d f0 cc 72 bd d7 9c 3c bd
       -0.07131109 0.079818204 -0.059277475 -0.04604801
000300 30 a9 5f 3d 1c 35 d3 bc 14 98 39 3d 06 23 c9 bd
       0.05460471 -0.02578216 0.04531105 -0.09821133
000310 75 28 7b bd b4 f6 b2 bd eb ab dc 3c ab 0f 9c 3c
       -0.06131788 -0.08738461 0.026937446 0.01905044
000320 d4 bc 7b 3d 56 55 a4 bc 96 24 58 bd 8d 2d 76 bd
       0.061459377 -0.020060223 -0.052769266 -0.060102034
000330 5c 03 95 3d fd 81 5f 3d c2 80 9f 3d 23 9d 51 3d
       0.072760314 0.054567326 0.077882305 0.051175248
000340 91 67 7f 3d e4 e2 c1 bd 47 44 9f bc 7e 03 77 bc
       0.062354628 -0.09467104 -0.019441737 -0.015076516
000350 c3 69 6b 3d 3d 16 33 3b b9 eb 0a 3e b4 09 4f bc
       0.05747391 0.0027326487 0.13566484 -0.012636591
000360 33 ab 63 3d d1 17 f6 bc 38 6a d7 bd 53 b5 89 3d
       0.05558319 -0.030040653 -0.105183065 0.06724038
000370 ed ef 50 3d 9b a4 33 3d ae 5a d9 3b ac 56 7f 3c
       0.05101006 0.043858152 0.0066331243 0.015584629
000380 cc cd 03 3d b4 e6 b8 bd b5 b0 e9 bc 7d 13 e5 3a
       0.032178685 -0.09028378 -0.028526643 0.0017477121
000390 7b 24 46 bd e0 35 b7 bc 18 9e 92 bd e6 05 60 bd
       -0.048374634 -0.022364557 -0.0715906 -0.054693125
0003a0 fc 6c 88 3d 53 84 72 3d 0f b4 45 bd 4e 64 fb bd
       0.06661412 0.059208225 -0.04826742 -0.12274991
0003b0 8b 60 db bd 80 34 25 3d a7 3b 74 3d 7d de ad bc
       -0.107117735 0.04033327 0.0596272 -0.021224255
0003c0 2d 9d 15 3c 36 54 b6 3d 47 02 b2 3d 57 b8 d6 ba
       0.009131712 0.08902781 0.086918406 -0.0016381842
0003d0 38 ed bf 3c d1 1c b6 bd 2a 04 5f bd 88 52 f6 bc
       0.023428544 -0.08892215 -0.05444733 -0.03006865
0003e0 f3 b9 e2 3c 44 ed 8d bc 2e ac 11 bd 24 08 ab bd
       0.027676558 -0.017325051 -0.035564594 -0.08351162
0003f0 c8 32 03 3d 0f a1 b6 3d b2 8f 82 3d ed 78 e8 3d
       0.03203085 0.08917438 0.06375064 0.1135119

lstm1.bias_ih_l0 f4 [512]
000000 46 a8 f4 3d 9a 8c bd 3d 7d 41 52 bd ea 72 50 bd
       0.11946158 0.09255333 -0.051331986 -0.05089084
000010 b2 2e 17 3e c1 b2 81 3c 16 e0 fe 3c 18 ab 63 bb
       0.14763907 0.015832307 0.031112712 -0.003473943
000020 d8 2e 87 bc 28 02 78 3c 46 d3 8a 3d 5a 6e 85 bc
       -0.016501829 0.015137233 0.067785785 -0.016287971
000030 5a 12 85 3d 41 f8 3d 3c 7a a5 d9 3d 77 6d e0 3d
       0.06497641 0.011594833 0.10627265 0.10958379
000040 03 24 62 3d 4d 7c 3a 3d 00 b5 c0 bd 78 7e 06 3c
       0.055210125 0.0455287 -0.09409523 0.008208863
000050 59 eb ba 3d e3 3b 3d 3d fa cb c0 bd 85 e9 54 3d
       0.0912692 0.04619969 -0.094139054 0.051980514
000060 58 aa 4f 3d e0 61 83 3c 3d d0 d5 3d db 89 ef 3d
       0.05069956 0.016037881 0.10440109 0.11696216
000070 d0 7c 1b bd f6 eb c2 3d 1d 6f e0 3d 1a b1 0e bd
       -0.037960827 0.09517662 0.10958693 -0.034836866
000080 c3 b3 d9 3d 76 d3 93 3d 9c 2a bc 3b 3c 34 05 be
       0.1062999 0.07218067 0.005742384 -0.13008207
000090 24 f3 5b 3d 10 5a 83 bc 80 70 be 3d 9b 6f 92 ba
       0.053698674 -0.016034156 0.092988014 -0.0011172177
0000a0 76 f1 10 bd ff 20 d8 bc 17 a4 98 3d 67 5f bf 3d
       -0.035386525 -0.026382921 0.07453173 0.093443684
0000b0 89 1b 20 3d d4 62 2a 3d b3 8c 71 3d 2f df 50 bd
       0.03908876 0.041598156 0.05897207 -0.050994094
0000c0 18 d0 97 3d 85 ae e5 bb 51 a6 d4 3d c9 65 7a bd
       0.074127376 -0.0070093297 0.10383285 -0.061132226
0000d0 20 ce 2b bd 2b 68 f6 39 78 08 d4 bd 7a 24 86 3d
       -0.041944623 0.00046998388 -0.10353178 0.06549926
0000e0 4e a7 23 3b f0 d2 8b bc f6 8f b0 bc 52 6d 31 bd
       0.0024971548 -0.017068356 -0.02155302 -0.043317147
0000f0 5a 61 a2 3d 87 75 db bd 54 a9 e9 3d 64 7d 74 3d
       0.079287246 -0.10715776 0.1140925 0.059689894
000100 93 0f b5 3d c8 90 94 3d 64 4b ce 3d 8e cf 41 bd
       0.08840861 0.07254177 0.10072973 -0.04731708
000110 cf 46 aa 3d c4 68 e4 bc 6f 99 15 bd 53 a5 a2 3d
       0.08314287 -0.027881987 -0.03652328 0.07941689
000120 60 65 b3 b9 9e 19 88 3d 80 2b 9b 3d 77 8c db 3c
       -0.0003421707 0.06645511 0.07576656 0.026800377
000130 9f de 75 3c 32 39 d1 3d da 0c 26 3d 17 75 e5 3b
       0.01500669 0.10215987 0.0405396 0.0070024836
000140 77 09 ad 3d 2b 12 89 3d 0e eb d8 bc 14 6a 89 bd
       0.08449071 0.066929184 -0.02647927 -0.06709686
000150 b0 9d 70 bc 89 7a ab bd b2 87 fa 3c c2 bc 94 3d
       -0.014686033 -0.08372981 0.030582283 0.07262565
000160 01 ad 55 bd 03 5e 19 bd 5d 7f 22 bd 8d 47 93 3d
       -0.052166943 -0.037443172 -0.039672244 0.071913816
000170 7b e7 85 3d e3 f8 46 3d 40 06 2e bc 06 0b f3 3d
       0.06538292 0.0485772 -0.010621607 0.11867337
000180 04 a3 da bd 4e a3 d5 3d 08 d9 5c 3d 6e c7 e3 bc
       -0.10675624 0.104315385 0.053917915 -0.027805056
000190 b5 8c 94 3d fb df 04 3d a9 52 76 3b a4 0b 18 bd
       0.072534 0.032440167 0.003758589 -0.037120476
0001a0 c4 7c 49 bd 18 4d ac 3d 2f 17 8e bd cf b4 80 3c
       -0.04919125 0.08413142 -0.06938016 0.015711216
0001b0 23 3e c0 bc ec cb de 3c ed f7 c5 3d d7 b3 f9 bc
       -0.02346713 0.027196847 0.09666429 -0.030481262
0001c0 75 ab f5 3d 86 81 37 bc 92 0a cb 3d ca 50 d9 3a
       0.119955935 -0.011200314 0.099141255 0.0016579863
0001d0 3e ef 77 3d 82 81 f4 bc 1a 99 0f 3d 20 ef 62 3b
       0.060530894 -0.02984691 0.03505812 0.0034627393
0001e0 7a 27 e0 3d e4 cd f0 3d 16 56 44 bd 54 48 8f bd
       0.109450296 0.117580205 -0.04793366 -0.06996217
0001f0 94 1a 2a bc 48 db 5b bc a7 2d 9d bc 85 78 66 3d
       -0.010382313 -0.01341898 -0.019186808 0.05626728
000200 27 5a da 3d 59 4f 36 bd 1d 90 a2 3d 86 2e d1 3d
       0.106617264 -0.044509266 0.07937644 0.10213952
000210 0b 00 d9 3d b2 7d 07 bd 88 e5 9b bd 23 4b 03 bd
       0.10595711 -0.033078857 -0.07612139 -0.032054078
000220 1b d1 19 bc 18 10 7f bc 9b 01 06 3d 3c d4 cd bc
       -0.009388234 -0.015567802 0.032716375 -0.025125615
000230 12 31 fd bc 40 43 80 bc b3 9c 96 3d 14 16 88 bb
       -0.030907188 -0.015657067 0.07354107 -0.0041530225
000240 5f 6c 41 bd fb 70 94 3d 59 99 34 bd a1 e1 72 3c
       -0.04722249 0.07248112 -0.044091556 0.014824302
000250 aa 0a 26 3d 6e 44 79 bd 97 4f 56 3b 66 af f8 bc
       0.040537514 -0.060856275 0.0032701248 -0.030357074
000260 d5 05 ee bc 3b 07 98 bd 12 67 26 3d 04 69 28 3d
       -0.029055515 -0.07423254 0.04062564 0.041115776
000270 3f 12 dc bc 8f ac 00 bd 8c 48 93 bd 29 e2 08 bd
       -0.02686417 -0.031414565 -0.071915716 -0.033418808
000280 f5 8a 81 3d 6f 54 b7 3c b7 0c 6f 3d 9f 59 5a bd
       0.06325332 0.022379128 0.058361735 -0.053308126
000290 45 ab c8 3c e8 7a 9c 3d 10 c9 d8 3d 70 e3 17 3d
       0.02449573 0.0764063 0.10585225 0.037082136
0002a0 5f 9e 22 3d b3 91 6d bc 07 f7 2c 3e de 33 42 3d
       0.039701816 -0.014500069 0.16891108 0.047412746
0002b0 a1 fa 64 3d dd 6f b3 3d 99 b6 dc 3b 86 0e bb 3d
       0.05590308 0.087615706 0.0067356345 0.091336295
0002c0 4e 32 a8 3d 3b 81 35 3d 9a 34 9f 3d 6b d5 8c bd
       0.0821272 0.044312697 0.07773705 -0.06876644
0002d0 07 3a eb 3c 5e 0f 88 ba e3 60 81 3d e3 f0 f3 3b
       0.028714193 -0.0010380556 0.06317308 0.0074444874
0002e0 a9 94 70 bd a3 92 cf 3d 8c f1 54 3d 12 1f 88 bd
       -0.058735523 0.101353906 0.05198817 -0.06646551
0002f0 05 04 2a bd 85 97 b4 bc fa e6 7e bc 3f c3 8a 3d
       -0.04150774 -0.022044906 -0.015557999 0.067755215
000300 0a 82 48 3d a2 25 f7 3d c1 2c 17 bc 34 ec 8f 3d
       0.04895214 0.12067725 -0.009226979 0.07027474
000310 4a 50 b4 3d 48 c4 c9 3d 5e 9c bb 3c ff ee f9 bc
       0.088043764 0.09851891 0.02290171 -0.03050947
000320 5f c6 2b 3d 03 43 96 bc ac 38 50 3d ea 2e 4d 3d
       0.04193723 -0.0183425 0.050835297 0.05009357
000330 2e af 03 bd 1d bf 98 3d 20 cc dd 3d e5 eb 71 3d
       -0.032149486 0.07458327 0.108299494 0.059062857
000340 56 c8 e2 3d f3 66 42 bc bf 7d 19 3d 08 94 33 bd
       0.11073367 -0.011865365 0.037473436 -0.043842345
000350 5e 56 c1 3d 09 ba e1 3c 3d 84 ce 3d f8 33 04 bd
       0.09440301 0.027554529 0.10083816 -0.032276124
000360 83 43 02 3d 84 7e d1 bd fd 8f 8c bd dd 7b 86 bd
       0.031802665 -0.10229209 -0.06863401 -0.06566594
000370 72 8f c9 3c af eb 69 bc ee 74 04 3d 32 22 2d bd
       0.024604533 -0.014277383 0.032338075 -0.04226894
000380 0e e0 4e 3d d4 38 8c 3d 13 19 f5 3d 77 02 41 bd
       0.050506644 0.068467766 0.11967673 -0.04712149
000390 a4 75 4f 3d 62 e6 e5 3c a5 26 2e 3d 34 1b 0e bd
       0.0506493 0.028063957 0.042517323 -0.03469391
0003a0 80 de 99 3d 3b 5e c6 3c 8b c5 c9 3d 70 94 4d 3d
       0.07513142 0.024214854 0.098521315 0.05019039
0003b0 5c b6 ee 3d c4 54 02 3e 31 94 a9 bd 85 48 31 3d
       0.11655876 0.12727648 -0.082802184 0.04328205
0003c0 55 18 75 3d cd 16 a1 3c ed db 9d 3d fb d8 ba 3d
       0.059837658 0.019664193 0.07707963 0.09123417
0003d0 b2 10 b6 3c 70 41 bc bc a5 4e b8 3d fd 38 21 bd
       0.022224758 -0.022980422 0.08999375 -0.03936099
0003e0 21 12 12 3d fc 31 d5 3d a3 6c a3 3c 56 bc 0a bc
       0.03566182 0.104099244 0.019949263 -0.008467754
0003f0 d8 3b 78 3d 84 fe d1 bb 75 7c 9b bd f8 bd eb 3d
       0.060603946 -0.0064085145 -0.07592098 0.11510843

lstm1.bias_hh_l0 f4 [512]
000000 64 8d 1f 3e 30 ba 85 3d f7 d0 68 3d d7 39 af 3d
       0.1558128 0.06529653 0.05683991 0.08555954
000010 21 28 65 3d 46 22 a3 bc 2c 13 b0 bd 13 45 5c 3d
       0.055946473 -0.019913804 -0.08597407 0.05377681
000020 87 a6 a7 3c 06 a1 81 bd 6c d0 8e 37 b9 49 35 3d
       0.020465149 -0.06329541 1.7024773e-05 0.04425976
000030 84 41 e8 bc 5e 25 21 3c 3c 01 59 3d b4 b7 dd 3b
       -0.028351553 0.009835569 0.052979693 0.006766284
000040 e2 a6 70 3c 23 86 c8 3d d2 a1 60 3d f9 21 97 3d
       0.014688225 0.097912095 0.054841824 0.07379527
000050 a5 f5 ad 3d bc fe 9e bc 84 20 8b 3c cd af a5 bc
       0.084941186 -0.019408576 0.016983278 -0.02022543
000060 55 a5 5b 3d 92 b2 ab bd 79 29 f6 3d b0 3b 0e 3e
       0.05362447 -0.08383669 0.12019629 0.13889956
000070 7b f0 ba 3d 5d 18 fb 3c 81 af e0 3d be 4f 9f 3d
       0.09127899 0.030651266 0.10970975 0.077788815
000080 53 48 e3 3a 75 02 20 3c 49 34 95 bd 24 75 fb bd
       0.001734028 0.009766211 -0.07285363 -0.12278202
000090 a3 74 0d 3d d7 68 4a 3d 5d ff c1 3d 5d 5b c9 3c
       0.03453506 0.04941639 0.09472535 0.024579698
0000a0 b8 10 cc 3d 53 64 3d 3d 88 58 57 3d 8c 4f 6d 3a
       0.09964126 0.046238255 0.052574664 0.0009052686
0000b0 2f 75 1e bc 80 b2 b3 3d 07 c2 9a 3d 3a 49 28 3c
       -0.009671493 0.087742805 0.07556539 0.010271365
0000c0 86 30 28 3d e8 e0 17 bc e4 91 47 3c 92 80 85 bd
       0.0410619 -0.00926993 0.012180779 -0.065186635
0000d0 e3 21 f7 bd 8a 6f d0 3d 53 cf 3f bc 99 ea 9e 3d
       -0.1206701 0.101775244 -0.011707145 0.0775959
0000e0 f2 7f f5 3d e7 f2 c1 3d 3f 17 7b 3d 29 b3 db 3d
       0.11987294 0.09470158 0.061301466 0.107275315
0000f0 d3 fb 8d bb be dc b4 3c 69 00 b7 3d 0d cd 70 3d
       -0.0043329983 0.022077914 0.08935625 0.0587893
000100 5a 0f e2 3c 0e d5 81 bd f2 ae b4 3b b0 59 78 bd
       0.02759521 -0.06339465 0.005514019 -0.060632408
000110 21 38 54 bd 83 71 1c 3d 96 c0 1b 3d ba c6 0e bd
       -0.05181134 0.03819419 0.03802546 -0.03485749
000120 6b 38 39 3d 49 18 ac bd 0e 4d d4 3d 00 de 3a bc
       0.04521982 -0.084030695 0.103662595 -0.011405468
000130 69 5e 8a 3d 40 38 83 3c ef be 7b 3d ad 3a 8f 3d
       0.067562886 0.016018033 0.061461385 0.069936134
000140 54 26 ab bc 57 ee 1e 3d fd 86 c1 bc 2d f1 68 3d
       -0.0208923 0.038801517 -0.023623938 0.05687063
000150 d2 9d bf 3d 44 37 3c 3d 3e 07 23 bd ee 1d b2 3d
       0.09356274 0.045951143 -0.03980183 0.08697115
000160 7a 00 36 bd 34 ba 9d 3d 6e a3 07 bc a6 4c 7b bd
       -0.04443405 0.07701531 -0.008278711 -0.061352395
000170 a9 09 4e bd 5b 20 24 bd d2 4b 3a bd b4 6e d7 bc
       -0.05030218 -0.04006992 -0.045482464 -0.026297905
000180 2d bb 36 bd 1d 8e 86 3c d1 c8 7b 3d c7 0b 47 3d
       -0.0446121 0.016425187 0.06147081 0.048595216
000190 ae 30 10 bc cd a1 d4 3c 95 96 8b 3d 77 30 42 bc
       -0.008800669 0.025956059 0.068158306 -0.011852375
0001a0 61 29 60 bd ee f1 ea bc d8 1a 98 3d 06 55 03 3e
       -0.054726962 -0.028679814 0.07426995 0.12825403
0001b0 83 45 45 3c 05 ed dc 3d 5b 1a 22 3c 93 27 6b bd
       0.012040499 0.107873954 0.009893979 -0.057410788
0001c0 64 52 07 3e 33 c6 43 bd 3b 81 f5 3c bc 74 64 bd
       0.13215023 -0.04779644 0.029968848 -0.05577539
0001d0 51 83 5f 3a ff 09 e7 3d fe 83 1c bc 22 e8 3b 3b
       0.00085263426 0.112812035 -0.009552954 0.0028672297
0001e0 53 fa 93 3d d0 ec ca 3d 74 bc a8 3d 1f b4 ba 3d
       0.0722548 0.0990845 0.082390696 0.091163866
0001f0 09 a1 6e 3d 7f 74 f7 3d ce 3e da 3d 61 7f 00 bd
       0.058259044 0.12082767 0.1065651 -0.031371478
000200 8d b7 f1 3d 6e 5c b7 bc 98 72 52 bb 99 fd 72 bd
       0.11802588 -0.022382941 -0.003211176 -0.05932388
000210 a4 ea db bc f0 25 72 3d 6c cc 29 bc cb d9 99 bd
       -0.026845284 0.05911821 -0.010363679 -0.07512244
000220 98 dc f3 3d e7 8e 88 bd 83 4e c6 3d 8d c7 4c bd
       0.11907309 -0.066678815 0.09682944 -0.049994994
000230 fc 8b 8c 3d a2 0a b2 bc 3d fa 88 3d 71 57 d7 3d
       0.068626374 -0.021733586 0.06688354 0.10514725
000240 70 1f e3 bc 13 2c 91 3c ad 0a 57 bd 0a 33 c1 3d
       -0.027724952 0.017721212 -0.052500416 0.09433563
000250 d7 4b 8f 3d 18 ec 85 3d 5d 54 9b 3d 8e a9 92 bd
       0.06996887 0.06539172 0.075844504 -0.07161246
000260 e1 38 6e 3d 6e 6d 22 bd 56 9b 09 bc f6 2e b6 bc
       0.058159713 -0.03965514 -0.008398851 -0.02223919
000270 83 17 a7 bd 3b 45 1a 3d 23 d8 85 3d 87 48 d7 39
       -0.081587814 0.03766368 0.065353654 0.00041062033
000280 9e 4d 3c bc 21 b3 36 3d ad c2 08 3b a9 15 1d bd
       -0.011493115 0.044604424 0.002086799 -0.038350735
000290 4f 44 45 3d 20 14 84 3d bd 0f c2 3d df 26 8e 3d
       0.048160847 0.06449151 0.09475658 0.06941008
0002a0 4f 3b 5f bc 7e ab 00 3d 36 70 79 3d de c4 46 bd
       -0.01362498 0.031413548 0.06089803 -0.04852759
0002b0 b8 33 79 bd a6 cd e9 3d 9c 35 84 bc ef d6 4d 3d
       -0.06084034 0.114161775 -0.016138844 0.050253805
0002c0 11 d1 4f 3d e7 1d be bc ec ae 33 3d ab f4 9b 3d
       0.05073649 -0.023207618 0.04386799 0.07615026
0002d0 5b 00 d7 bc d6 21 ee 3d fe ac b0 3b 06 85 86 bc
       -0.026245287 0.116275474 0.005391716 -0.016420852
0002e0 ec 5e b2 3d f6 8a 8d 3d 20 24 23 bc c0 47 af 3d
       0.08709511 0.0691127 -0.009957343 0.08558607
0002f0 6e 8f 8f bd 77 99 6b bd 35 e6 95 3d e1 b3 f2 3c
       -0.07009779 -0.057519402 0.07319299 0.029626789
000300 e7 11 3f bc 0c 31 72 bc 25 91 a3 bc 3d fc 24 bd
       -0.011661983 -0.0147822015 -0.019966671 -0.040279616
000310 e7 34 18 3d 74 40 01 bc 5e 49 9c 3d 71 b8 e9 bc
       0.037159827 -0.007888902 0.07631181 -0.028530331
000320 ed d7 53 3d bb 3b 08 bc 8b c2 84 bc a5 e0 33 bd
       0.051719595 -0.008315022 -0.016206047 -0.04391541
000330 5f 9b 71 3d 7d ed 82 bd 75 c0 b8 bc ed 30 80 3d
       0.058986064 -0.063929535 -0.022552708 0.06259332
000340 ce 92 b1 3d b9 24 58 bd 51 c7 64 3d 0f 04 cf 3d
       0.08670579 -0.052769396 0.055854145 0.10108196
000350 de 29 08 3d 53 1b ea bc c2 5b 42 bc 9e c0 8b 3d
       0.033243053 -0.028577482 -0.011862697 0.06823848
000360 c2 e6 8d 3d 69 46 1b 3c 46 b5 a7 3d 9d db 93 3d
       0.06928779 0.009477236 0.08188872 0.07219622
000370 2a 6b 9e 3d 82 ea f8 3c bf 6c 07 bd b3 b4 a2 3b
       0.07735284 0.03038526 -0.033062693 0.0049653887
000380 2e b7 38 3c 22 6b 55 bd 6b 33 2b 3d 7c 8d a4 3d
       0.011274142 -0.052104123 0.041797083 0.080347985
000390 a2 f7 51 3d d7 38 9f 3b b6 33 60 3c 4e aa b6 3d
       0.05126155 0.0048590708 0.013684204 0.08919202
0003a0 c0 1c db bb 7a 9b a7 3c 95 d0 9f 3c 60 40 89 3d
       -0.006686777 0.02045988 0.01950864 0.06701732
0003b0 4f 87 4e bd 6a 15 00 3e 57 53 7b bd 4b f7 41 bd
       -0.05042201 0.12508169 -0.061358776 -0.047354978
0003c0 27 d5 40 3d 84 ce c7 3d 6a b4 d6 bb 51 f9 30 bd
       0.047078278 0.097561866 -0.0065522688 -0.043206517
0003d0 b8 2e 2f 3d 93 f2 84 3d 53 eb 2e bd 7e 68 eb 3c
       0.042769164 0.0649158 -0.04270489 0.02873635
0003e0 a9 05 12 3d 97 d4 8b 3d 03 f8 9d bb cd 45 20 3d
       0.03564993 0.06827658 -0.004820825 0.039129067
0003f0 82 14 2d 3d aa 1c b4 3d 95 27 cf 3c c1 a1 b1 3c
       0.042255886 0.0879453 0.025287429 0.021683576

lstm1.weight_ih_l1 f4 [512, 128]
000000 66 c7 67 bd 77 6b 1a bd 58 6e b1 bd 2c 0a f1 3b
       -0.056586646 -0.037700143 -0.086636245 0.007355949
000010 98 e5 67 bd 14 3c fc bc 80 a1 e7 bd 41 e9 d1 3c
       -0.056615442 -0.030790366 -0.113101006 0.02562392
000020 3d aa 95 bd cb ea a7 bb 52 a9 6e bd 15 3b 22 3d
       -0.07307861 -0.005124425 -0.058266945 0.039607126
000030 71 99 3e 3d 4c 09 d4 3c 4c 47 b8 bd c0 92 21 3e
       0.046533052 0.02588334 -0.08997974 0.15778637
000040 bd 18 67 3d d5 5f 0c 3d 69 88 3b 3d 48 42 9e 3d
       0.056420077 0.03427108 0.045784388 0.07727486
000050 f7 9c 67 bd bd 8d 1f 3d a8 88 c5 bd e4 44 20 bd
       -0.056546178 0.03895353 -0.09645206 -0.0391282
000060 bc 58 da 3b f7 d9 cc bc 3d 17 f9 bd 9f ec ae 3d
       0.00666341 -0.025006277 -0.121626355 0.08541226
000070 f7 39 50 3d 8f 6a 3d 3d 03 84 57 3d 37 3f e2 3b
       0.05083653 0.0462442 0.05261613 0.0069045085
000080 5a 46 66 3c 3f 23 07 be 18 22 e0 3d 7f a4 02 be
       0.014054859 -0.13197039 0.10944003 -0.12758063
000090 04 10 a2 3d 4b dd 9a bd f1 9b 3d bc cb 75 0e bd
       0.07913211 -0.075617395 -0.011572824 -0.034780305
0000a0 13 91 83 bd 7a 80 b3 3d 39 f1 01 3d 4e ce 45 3c
       -0.06424155 0.08764739 0.03172419 0.012073113
0000b0 52 d6 0f 3e 5a 6e 35 bc 2e e1 1c be a7 65 d4 bd
       0.140466 -0.011073673 -0.15320274 -0.10370951
0000c0 3c 8d 3a 3d 13 f7 6b bd bc 87 c2 3d 0f 63 28 3d
       0.045544848 -0.057608675 0.094985455 0.041110095
0000d0 4e 0d f9 bd 91 42 d5 3d 2c 72 5a 3c 51 59 d2 bd
       -0.12160741 0.10413087 0.013332885 -0.10270942
0000e0 6d 60 36 bb bb e1 8c bc cf f6 8b 3b 03 5a 43 bc
       -0.002782847 -0.01719748 0.0042713652 -0.011923316
0000f0 62 09 cb bd 53 b1 be 3d 25 e9 0c bd 1b d9 de bc
       -0.09913899 0.09311166 -0.03440203 -0.027203133
000100 f0 1a b1 3d 83 c2 2a 3d 96 f0 43 bd 2c 99 de bc
       0.08647716 0.041689407 -0.047836863 -0.027172647
000110 4b 16 12 bd 21 d1 08 bd cb d8 8e 3d 14 ef 5e 3c
       -0.03566579 -0.033402566 0.06974944 0.013606805
000120 cb 45 d1 bd e2 8f 01 3d 5e 90 05 be fd 92 f9 3d
       -0.1021839 0.031631358 -0.13043353 0.12186239
000130 61 a4 f8 bd c1 a9 75 bc 4d 44 f6 3d 51 de f7 bc
       -0.12140728 -0.014994086 0.12024746 -0.030257376
000140 c2 1b d5 3c 97 01 8f bc dd b0 a9 bd d7 47 c5 bd
       0.026014213 -0.017456813 -0.08285687 -0.09632843
000150 07 39 72 bc 65 22 fe bd ad 1c f8 3d 0f 6c d9 bc
       -0.014784104 -0.12408904 0.121148445 -0.026540784
000160 aa 1c a5 bb bc fe 73 bd 37 e3 3d 3d 62 99 85 3c
       -0.0050388174 -0.059569106 0.046359267 0.01630849
000170 da 5f a2 3b cd 35 07 be c0 ca 4d bd 75 cf ad bc
       0.004955274 -0.13204117 -0.050242186 -0.021217087
000180 40 a6 00 be 4f 86 be bb b2 38 92 bb 53 49 e3 3d
       -0.1256342 -0.0058143507 -0.004462325 0.1109797
000190 ca 6f 56 3d 55 df 22 3c 42 37 1d 3d 73 cb b8 bd
       0.052352704 0.009940942 0.038382776 -0.0902318
0001a0 c8 28 ab 3d a3 86 de bc b1 91 c5 3d 4b 9d 53 3c
       0.08357388 -0.02716381 0.09646929 0.01291592
0001b0 16 0d 89 bc a4 13 d5 bc 64 b1 e5 3d db 41 08 be
       -0.016729873 -0.026010342 0.11215475 -0.13306372
0001c0 eb 5f a8 3c 79 d3 d1 bd 73 b7 fa 3c ef b5 c8 3d
       0.02055355 -0.10245413 0.030605054 0.09800326
0001d0 91 17 98 3c ac f5 0a bd fa 94 28 3c 8f a7 5c 3d
       0.018565925 -0.033925697 0.010289425 0.053870734
0001e0 ff 67 e1 bd b4 97 18 3d ec 1e 61 3d 60 f8 08 be
       -0.11006164 0.03725405 0.05496113 -0.13375998
0001f0 97 fc a2 bd e1 ad cd 3d c5 56 f6 bc cc b8 99 ba
       -0.07958334 0.100429304 -0.030070672 -0.0011728047
000200 59 66 a3 3b 18 89 06 be ad 12 cc bd b3 0f 4e 3d
       0.004986566 -0.13138235 -0.099644996 0.05030794
000210 40 31 c4 3c 8b 81 2b bd 62 26 b3 3b 79 5d e2 bd
       0.023949265 -0.04187159 0.005467222 -0.11052985
000220 c8 c6 dd bd 9f b0 92 ba 93 e4 cf bd 1f b2 bd 3d
       -0.1082893 -0.0011191553 -0.10151019 0.092624895
000230 df 82 2b 3d 25 0d 64 3c e1 ab 44 be dc f9 fc 3d
       0.041872855 0.0139191495 -0.19206192 0.123523444
000240 a9 7a 41 bc 4f d5 9c bd ca c2 14 3d ee 7b 64 3d
       -0.01180903 -0.07657873 0.036318578 0.05578225
000250 9c 66 da 3c 5e 65 99 3d 15 21 a1 bd 18 60 06 be
       0.026660256 0.074900374 -0.07867638 -0.13122594
000260 c8 52 7b 3d b1 75 30 bd 6a b8 44 bc e3 b0 d3 3d
       0.061358243 -0.04308099 -0.012006858 0.10336473
000270 fa a1 08 bd 87 f4 d3 3d 22 d6 e7 3c cf bb c3 bd
       -0.033357598 0.10349374 0.028300349 -0.09557306
000280 bd 0f 20 be b3 30 9b bc 03 6f a6 3d c1 33 05 3d
       -0.15631004 -0.01894412 0.081266426 0.03252006
000290 65 02 4b bd 82 59 37 3d ff 08 5e 3d 21 e2 e6 bc
       -0.04956283 0.044763096 0.054207798 -0.028183999
0002a0 31 4b e5 bd 3d f1 d6 3d 78 0f 43 3d 25 9c 18 be
       -0.11195982 0.10495231 0.047622174 -0.14903314
0002b0 66 b4 22 3d 6c 06 51 bc 4b a9 0f bd bb 2b 97 bc
       0.039722823 -0.012757879 -0.03507356 -0.01845347
0002c0 f3 87 9b bb 1b 2b 9c bd e5 b8 ac 3d 73 b9 75 bd
       -0.004746431 -0.07625409 0.08433703 -0.05999131
0002d0 f3 26 b7 bd cb 4d ba 3d 11 ca ae 3d ed 90 ff bd
       -0.08942976 0.09096869 0.08534635 -0.12478814
0002e0 63 30 7c 3d c0 77 f1 bb 22 09 fb bc a2 0a fc 3c
       0.061569583 -0.0073690116 -0.030644003 0.030766789
0002f0 af e2 c0 bc 46 33 da 3d ff 62 05 be 16 24 67 bd
       -0.023545591 0.10654311 -0.13026045 -0.0564309
000300 50 01 d8 bb 00 41 7c 3d b8 80 97 bb e3 64 d8 bd
       -0.0065919533 0.061585426 -0.004623499 -0.105661176
000310 23 6c 77 3c 1a c7 db bc 3b 1e 29 3c dd fa 2c bd
       0.015101465 -0.026828337 0.010322149 -0.04223143
000320 b4 ee b6 bd 0d 45 ea bc 2b da e9 bd ea 41 cd bc
       -0.08932248 -0.02859738 -0.11418565 -0.025055844
000330 0c 77 c8 bd 28 02 ea bd 6c 0a 83 3b 43 59 0e be
       -0.097883314 -0.114261925 0.003999045 -0.13901238
000340 38 68 8c 3d 01 d6 5b bd cc e3 a0 bd 18 a8 82 bd
       0.06855816 -0.053670887 -0.07855949 -0.063797176
000350 60 cb 87 bd be 20 15 3d e3 e3 4c 3e 22 db 20 be
       -0.066305876 0.03640818 0.20008807 -0.15708593
000360 32 29 f8 3b 7a 7d b5 3d 16 0f 99 bd 1a 8f b8 3c
       0.0075732702 0.088618234 -0.074735805 0.022529174
000370 26 5b a6 3d 44 c9 cb 3c 5b e5 00 be 2e 94 6b 3c
       0.08122854 0.024876244 -0.12587492 0.0143785905
000380 5a e6 72 3c 6d 3c 8d bd a8 ad a9 3d 0a 1a 5e bd
       0.014825428 -0.06896291 0.082850754 -0.05422405
000390 f5 99 c4 3d 99 13 99 bd 03 5d 94 3d 75 0f 56 bc
       0.095996775 -0.07474441 0.07244303 -0.013065209
0003a0 d0 95 24 bd 0d 48 f8 bc 9f af e4 3d 90 e8 36 bd
       -0.040181935 -0.030307794 0.111663096 -0.044655383
0003b0 5e fa bc bd 02 0e f9 3c 46 a2 50 3d 35 b6 4e bd
       -0.09227441 0.030402187 0.050936006 -0.050466735
0003c0 32 6d 0d bc 1e 87 71 3c bb 2e f9 3c 5c cc 8d 3d
       -0.008631991 0.014741687 0.03041779 0.06923744
0003d0 05 b6 71 3d 9f f8 6f 3d 25 92 25 3d 6d 73 94 bd
       0.059011478 0.058586713 0.040422577 -0.07248578
0003e0 2a a6 de bd 94 50 cb bc 4b ca df 3d b9 e8 87 bd
       -0.10871537 -0.024818696 0.10927256 -0.06636185
0003f0 e3 36 35 bd 6e 97 c6 3d ba 28 68 bd 24 3c 34 bd
       -0.044241797 0.09696852 -0.056679465 -0.044002667

lstm1.weight_hh_l1 f4 [512, 128]
000000 d6 45 d0 3d 85 11 00 3e d8 1d b8 bc 4d fd 33 bd
       0.1016957 0.12506683 -0.022475168 -0.04394274
000010 a2 6b 64 bd 3d ff 4a 3d 89 9c e9 3d 6e be 60 bd
       -0.05576671 0.04955982 0.1140681 -0.054869108
000020 fe b2 fa 3c 1c a7 c7 bd 17 26 86 bd 06 ad 49 bd
       0.030602928 -0.097486705 -0.06550234 -0.049237274
000030 df 34 10 3b 54 8b 9f bd 3c bb 17 bc 12 b7 4f 3d
       0.002200417 -0.077902466 -0.009260949 0.0507117
000040 4f ea 82 3d 62 80 ab bd a8 25 27 bd aa fd 5f bd
       0.06392347 -0.083740965 -0.040807396 -0.054685272
000050 ab 3f c6 3b 53 4d cc bc 78 78 29 3d 86 08 0e 3e
       0.0060500703 -0.024939215 0.041374654 0.13870439
000060 4c 90 87 bd 6f 57 f3 3c 85 85 d3 bc 1c 5d 86 3d
       -0.06619319 0.029704778 -0.025820503 0.06560728
000070 4d 5e a5 3d 7b 98 74 3d 51 93 b0 3d a8 19 6d 3c
       0.08074627 0.05971573 0.086218484 0.014471449
000080 10 ea b2 3d 14 da a3 bd 66 14 cd 3b b9 ae 24 3d
       0.0873605 -0.080005795 0.006258535 0.04020569
000090 77 d5 ca 3c 86 70 35 bd 22 99 c6 3a d3 cb af bd
       0.024759991 -0.044296764 0.0015151838 -0.08583798
0000a0 67 77 90 3d f8 5c 0e 3d b6 b0 f9 3d da 1a 8c bd
       0.07054024 0.03475663 0.12191908 -0.06841059
0000b0 80 fa 0f bd 28 ce 1b 3d 78 80 c8 3d 9d c4 3f 3d
       -0.035151005 0.038038403 0.097901285 0.046818364
0000c0 dd c7 55 3d fd 56 95 bd a6 0b 7f bd 96 1a 82 bd
       0.052192558 -0.07291982 -0.06226697 -0.06352727
0000d0 05 ce c4 bc 32 98 f1 3c c8 81 fb bd ef 6b 60 3d
       -0.024024019 0.029491518 -0.12280613 0.054790433
0000e0 72 f9 28 3d bc 4e 40 bc 87 6f 00 bd e4 34 84 3d
       0.041253515 -0.011737522 -0.03135636 0.064554006
0000f0 7d 1a 8f 3d 97 61 84 bb 4d 66 03 bd bc 5f 2c 3b
       0.06987474 -0.004039954 -0.032079984 0.002630218
000100 bf 27 fe bd 98 13 a2 bd d1 9a 3e 3c e1 5e 4e bd
       -0.12409925 -0.079138935 0.011633591 -0.050383452
000110 c7 0c fa 3c 47 c3 d9 bb 26 29 84 3d 8e 42 13 3d
       0.03052367 -0.0066455933 0.06453161 0.035952143
000120 0d 56 b4 bc d3 9f aa bd 2e 93 c9 bc 97 fb 9e 3c
       -0.022013688 -0.08331265 -0.024606314 0.019407077
000130 4d 90 ba bd 43 8f c9 3d bd 16 1e bd 61 51 b2 3d
       -0.091095544 0.09841778 -0.038595904 0.08706928
000140 ea 0a 16 3d 58 67 e8 3d 59 14 72 bc 65 d4 75 3d
       0.036631502 0.11347836 -0.014775359 0.06001701
000150 28 31 eb 3c d6 f8 e8 bd 59 4f a8 3c 55 60 8f bd
       0.028709963 -0.11375587 0.020545648 -0.07000796
000160 c3 3b 0a bd 5b 68 9c bd b6 1d 6a 3d b6 a6 24 3c
       -0.0337484 -0.07637092 0.05715724 0.010049513
000170 76 25 85 bd c0 b4 92 3d c7 ba ee bd dc 83 cd 3d
       -0.06501286 0.071633816 -0.11656719 0.10034916
000180 cd 6f 2c 3d ff 1a 23 bd 64 7d c0 3d 30 2a 4f bc
       0.04209881 -0.039820667 0.09398916 -0.012644336
000190 ef aa a9 3d c2 a3 29 bd cf b6 9e bd 33 58 ce bd
       0.08284556 -0.041415937 -0.07749712 -0.100754164
0001a0 9e 5a 6d bd b7 94 ae bd 67 6c a7 bc be be a2 3d
       -0.057947747 -0.08524459 -0.020437432 0.079465374
0001b0 65 23 9a bc 15 4d 23 3a cf 20 ed 3c 29 6d 03 3d
       -0.018815706 0.00062294427 0.028946308 0.032086525
0001c0 6d 90 3f 3d 3d 59 86 3c 72 36 af bd 67 44 20 3d
       0.046768595 0.016399974 -0.085553065 0.039127734
0001d0 90 e0 ff bd 7c 28 8f bd 2f 61 99 bd d2 75 91 bc
       -0.12494004 -0.06990144 -0.074892394 -0.017756376
0001e0 3c 98 29 3c 73 f5 02 bd 3e 80 21 bd 70 50 f6 3b
       0.010351237 -0.03197236 -0.039428942 0.007516913
0001f0 e3 14 ed 3d e7 f3 87 3b f2 e5 07 be 89 c8 c9 bd
       0.115762495 0.0041489485 -0.13271311 -0.09852702
000200 e4 ac 46 bd f9 c8 0c bb 10 3f aa bb 5f d5 cb 3a
       -0.048504725 -0.0021482094 -0.005195506 0.001555126
000210 8b 92 cb bd 60 db c4 3b 38 c7 37 bd 09 9a 09 3d
       -0.0994006 0.006007597 -0.044867724 0.033594165
000220 39 1c 83 3d dc d3 a4 3d a3 ce 53 3c a4 7a 70 bd
       0.064018674 0.080482215 0.012927684 -0.05871071
000230 ba c2 20 bc ca 80 99 3d c0 0e 6b 3d ef 7c 66 3d
       -0.009812051 0.07495268 0.057387114 0.05627149
000240 17 5e 04 bd 97 7f 05 be 7c f8 b9 3c ad 04 21 bc
       -0.032316294 -0.13036953 0.022701494 -0.009827775
000250 85 2b 29 3d b1 4e 14 be 41 39 a4 3c f4 a6 e5 3d
       0.04130127 -0.14483143 0.020046832 0.112134844
000260 34 3c b0 bc 41 e1 95 3b 52 73 42 3d 17 9f 64 38
       -0.021513082 0.0045739715 0.04747326 5.45076e-05
000270 67 66 89 bd 01 c3 de bc 8e cb 54 bd ba 27 46 3c
       -0.06708985 -0.027192594 -0.051951937 0.0120944325
000280 f4 27 a4 bd 81 33 89 3d c8 a9 5a bd ba 17 c9 3c
       -0.08015433 0.06699277 -0.053384572 0.024547447
000290 38 73 8a 3c 97 e5 e5 bd 3d 46 b1 3d 7d 12 5d bd
       0.016900644 -0.112254314 0.08655975 -0.05397271
0002a0 b4 ce b5 3d a2 6b bf bc 30 63 fb bc 40 91 32 bc
       0.08877316 -0.023366753 -0.030686945 -0.010898888
0002b0 37 00 fd 3d 9d 9a 81 3d 20 c5 6d 3d 9e 5c a0 3d
       0.123535566 0.06328318 0.05804932 0.07830165
0002c0 16 ab a4 bd 25 ed 6a bd 58 89 72 bc f7 bc 82 3d
       -0.080404446 -0.057355065 -0.014803253 0.063836984
0002d0 d9 ff 77 bb 63 c9 dd bd 79 67 57 bc 59 25 bd bc
       -0.0037841706 -0.10829427 -0.013147228 -0.023089098
0002e0 d5 2c 46 bc 73 8f 00 3d 5b 34 c8 bd d2 7d d1 3c
       -0.01209565 0.031386804 -0.09775611 0.025572691
0002f0 bd 26 00 3c e7 fe a8 3c f6 c8 94 bd 59 4a dc bd
       0.007821736 0.02062936 -0.07264893 -0.10756368
000300 80 cb 9b 3b d2 a1 a9 3d 9c 48 80 3c 13 ed bc 3c
       0.0047544837 0.08282818 0.015659623 0.023062265
000310 9f 55 08 3c b2 f2 72 3d 75 2b 3f 3d 6f ff 3e bc
       0.008321195 0.059313484 0.046672303 -0.01165758
000320 2a e1 3d 3d 71 45 a0 bd 36 21 0e be 0d 87 6f bc
       0.04635731 -0.07825745 -0.13879856 -0.014619601
000330 23 38 a3 bd 02 8a 2e 3c 08 46 94 bd 9c 29 51 bd
       -0.079696916 0.010653021 -0.0723992 -0.051065072
000340 72 8c 1f bd 71 1b c0 bd ac c6 a7 bd dc 58 bf bd
       -0.0389523 -0.09380234 -0.081921905 -0.093431205
000350 19 b6 bf bc d3 bc 5b 3d 47 f5 32 3c 5e 70 92 3d
       -0.02340226 0.053646874 0.0109227365 0.071503386
000360 ac 71 10 bd 8e e7 95 3c e9 2b 97 3d 64 27 17 bd
       -0.035264656 0.01829889 0.07381422 -0.0369028
000370 af 2b 94 bd 97 61 00 be a3 b2 40 bd b3 e4 35 3d
       -0.072348945 -0.12537228 -0.04704536 0.044407558
000380 f5 35 b6 3d fa f7 11 be 5b 46 98 bc e6 21 a2 3d
       0.0889701 -0.14254752 -0.018588236 0.07916622
000390 49 54 7a 3c 29 bc da 3d 09 02 08 3a 77 64 ae 3c
       0.015278884 0.1068042 0.00051882915 0.02128814
0003a0 e2 b2 91 3d 70 13 00 3d a2 bd ee 3c 0f 14 b7 3d
       0.07114197 0.031268537 0.029143158 0.08939373
0003b0 00 05 c1 bd 91 95 98 bd a4 cc 93 bd 65 82 70 bd
       -0.09424782 -0.074504025 -0.072167665 -0.058718104
0003c0 37 b9 73 bd 54 8f db bb 8f ce 65 3c b1 6c 6e bc
       -0.059502807 -0.0067004357 0.014026298 -0.014552281
0003d0 ad e0 17 bc a4 40 e8 3d 5e 80 d6 3c 62 f6 36 bd
       -0.0092698755 0.11340454 0.026184257 -0.044668563
0003e0 2a f3 eb bb 80 57 e1 3b 0b 79 9f 3d 52 c4 c4 bd
       -0.0072006183 0.006876886 0.07786759 -0.09607758
0003f0 40 e2 88 bd a1 1c a1 bb 5b 69 82 3c 68 3e 21 3e
       -0.06683779 -0.004916743 0.015919378 0.15746462

lstm1.bias_ih_l1 f4 [512]
000000 c8 88 ee ba bd 6c ca 3d 4c c3 77 3d 98 ed c1 3c
       -0.0018198723 0.098840214 0.060488984 0.023672864
000010 e8 ec bc 3d b8 5b 51 3b df 30 b3 3d 77 73 91 bd
       0.09224874 0.0031945538 0.08749556 -0.07102101
000020 65 f0 77 bd 34 fd 34 3b 80 4c e9 3d 70 52 a7 3d
       -0.060531992 0.002761674 0.11391544 0.081700206
000030 05 b9 25 3d 6a 27 9b 3c 5f 62 82 bb 22 5c 33 bc
       0.04045965 0.018939693 -0.003979012 -0.010947259
000040 ee e2 00 3e db 0c e3 3d 38 43 15 bd 9f ac 2f 3d
       0.12586567 0.11086436 -0.036441058 0.042889234
000050 8a c9 c4 3d 31 df a7 3b 22 fc 60 bc f3 41 a6 3c
       0.09608753 0.005123042 -0.013731988 0.020295119
000060 0f cd f9 3b 69 f7 6b 3c 36 ff e8 bb 2c 98 64 bb
       0.007623322 0.014402249 -0.0071105016 -0.003488074
000070 17 cb 94 bc 84 12 38 3d 9a 65 15 3e ae ec 28 3e
       -0.018163247 0.044939533 0.14589539 0.16496536
000080 31 f6 fa bc aa 68 13 3d dc e7 e4 3d 21 e0 9f 3d
       -0.030634971 0.035988487 0.11177036 0.07806421
000090 55 4e 5a 3d d4 4e c2 3d c8 2f 19 3c 10 64 5e bd
       0.05329736 0.094876915 0.009349771 -0.054294646
0000a0 f6 35 82 bc 0c 9f 54 3d f0 56 af 3d dc 3b db 3c
       -0.015894871 0.05190949 0.08561504 0.026761942
0000b0 98 9e b1 bc d4 9c 40 3d 96 e2 31 3d 7f 60 c4 3d
       -0.021682069 0.047024563 0.04342898 0.09588718
0000c0 db f5 df 3d 7d 98 66 3d 67 62 5f bc 06 7d 9a 3d
       0.10935565 0.056297768 -0.013634301 0.075433776
0000d0 9d cc 89 bc 67 a3 b2 3c 78 34 d9 3d ad c9 7f 3d
       -0.0168212 0.021806432 0.10605711 0.062448192
0000e0 ef 12 df 3d e4 3f 71 3d e6 1f c2 3d ec 0b 9b 3c
       0.10892283 0.05889882 0.094787404 0.018926583
0000f0 ca 19 7a bd d5 76 b0 3d 9b 1c 2e bd 22 41 92 3d
       -0.06105975 0.086164154 -0.04250775 0.07141329
000100 0f 6c 46 bd 08 08 b1 3d b1 8d 81 bd 4b 74 95 3d
       -0.048442896 0.0864411 -0.063258536 0.07297572
000110 aa 91 79 bc b2 9b 81 3d c8 dc 39 3d be d5 9e 3d
       -0.015232483 0.06328525 0.04537657 0.07755612
000120 a6 ba 05 3e b1 73 1c 3d 7f 96 7f 3d b7 ab 9c 3d
       0.13059482 0.03819627 0.062399384 0.076499395
000130 98 dc e7 3c c8 39 fe 3d 77 a1 8d 3d 62 dc bf 3d
       0.02830343 0.12413365 0.069155626 0.093682066
000140 c8 2d 7e 3d 06 85 40 3c fd fc a1 3d d9 d3 be 3c
       0.06205538 0.011750465 0.07909582 0.023294376
000150 b9 3b 97 3d 49 5b 54 3d fa b5 9a bd aa 32 31 3d
       0.07384438 0.05184487 -0.075542405 0.043261208
000160 91 7e 46 3d 8d 07 86 3d 2c 2a 96 3d ff 05 ea 3d
       0.048460547 0.06544409 0.073322624 0.11426925
000170 43 ec bf 3c d5 33 8a bd 90 c7 3d 3c ee f7 1a 3d
       0.023428088 -0.067481674 0.011583224 0.0378341
000180 01 49 4d bd 68 d7 fd 3d d7 76 25 bd e9 31 80 bd
       -0.05011845 0.12394601 -0.040396538 -0.062595196
000190 46 8d 56 3d 94 e6 cf 3d f2 6e eb 3d a2 94 9e 3d
       0.052380823 0.10151401 0.114957705 0.07743193
0001a0 4d 28 2a 3d 4d 98 27 3d 42 b6 61 3d c6 40 83 bc
       0.04154234 0.04091673 0.055105455 -0.016022097
0001b0 bd 16 ae bc ee 86 6f 3d db 24 bd 3d cf b9 14 3d
       -0.021251077 0.05847829 0.09235545 0.036310013
0001c0 64 6b 88 3b d2 4f 24 bc b2 8e 0e 3e dc 50 60 3d
       0.0041631926 -0.010028796 0.13921621 0.054764614
0001d0 e7 a4 eb 3d 65 10 6f ba 5b c0 0a 3d 5d c5 ef 3d
       0.11506062 -0.00091195694 0.03387485 0.11707566
0001e0 bd 5e cc bc 5a dd ae 3d aa d6 2f 3d a1 ee a8 bc
       -0.024947518 0.08538313 0.04292933 -0.0206216
0001f0 18 a6 ad 3d 1e 93 74 3d 6a ef 5b 3d 32 9c c4 3d
       0.084789455 0.059710614 0.05369512 0.096001044
000200 53 5d dc 3a 70 67 ce 3d 54 92 e3 3d 5f 89 82 3c
       0.0016812481 0.10078323 0.11111894 0.015934644
000210 d4 34 8f 3d 36 df 84 bd 98 ef d3 3d ff 74 2c bd
       0.06992498 -0.064878866 0.10348433 -0.042103764
000220 a2 af a0 3d d5 cd f7 3c 32 22 96 3d a3 f4 51 3c
       0.07845999 0.030249516 0.07330741 0.012814674
000230 a9 49 b5 bc b6 b9 c7 bc da 63 8f 3c 3d 16 61 bd
       -0.02212985 -0.024380546 0.017503668 -0.05495285
000240 83 0d 81 3d 1c be 2b bd 21 ce 1e bd 49 c3 2a 3d
       0.06301405 -0.04192935 -0.0387708 0.041690145
000250 d1 7d ad bc 04 d1 1e 3d 84 0a 17 bc a6 c5 7d 3b
       -0.021178158 0.03877355 -0.009218816 0.0038722544
000260 f3 1a 51 bd 29 63 85 3d 9f f2 e1 bc 40 8c 1f bc
       -0.05105109 0.06513054 -0.027581511 -0.009738028
000270 96 d7 1d 3d 5f 3b df 3d dc 70 0d bd b8 2c 5c bd
       0.038535677 0.10899996 -0.03453146 -0.053753585
000280 ad 70 c8 3c 8b 5a dd bb f3 5b de 3d 58 ef ca 3d
       0.02446779 -0.0067551783 0.10857382 0.099089324
000290 25 89 c3 3d 59 5a e1 bc 89 86 0b bc b8 8e 61 3d
       0.095476426 -0.027508901 -0.008515962 0.055067748
0002a0 35 d3 f3 bc ef 34 95 bc 52 2d ff 3c 9f a3 b0 3d
       -0.029763797 -0.018213717 0.03114954 0.08624958
0002b0 42 a2 2c bd f0 17 74 3d 7f f9 9a 3d ef 19 25 bb
       -0.04214693 0.05959314 0.07567119 -0.002519246
0002c0 3e a0 e1 bb 5a 82 b2 3d 77 2c 8e bc ca 54 30 3b
       -0.0068855574 0.08716269 -0.017355187 0.0026906007
0002d0 0e 2f 0e 3d 56 a4 25 bd db 3e f2 bc 6d 88 56 3d
       0.034712844 -0.040439926 -0.029570987 0.0523762
0002e0 c7 4b de 3d 95 e6 aa 3d 8b 46 9e 3a 94 b4 ef 3b
       0.10854297 0.08344761 0.0012075467 0.0073152278
0002f0 9d 73 90 3d 22 f9 e5 3c 1b 6f 98 3d ce b1 7c bc
       0.070533015 0.028072897 0.07443067 -0.015423251
000300 5a 84 a9 3d 89 43 af 3b 08 bf 44 3c cd 0d 78 3d
       0.08277197 0.005348627 0.012008436 0.060560036
000310 4e 58 a2 3d ce ae 6c bc 4b a1 04 3e 61 b3 79 3d
       0.07926999 -0.014445974 0.12952153 0.060962085
000320 11 eb 3c bb 3e cb b1 3d d7 87 73 bc 2b c8 36 bd
       -0.0028826634 0.086813435 -0.01486393 -0.04462449
000330 18 6a 26 3d 71 86 7a 3d a1 df 3f 3c 19 89 ad 3c
       0.040628523 0.06116337 0.011711032 0.021183537
000340 f9 4a c2 3c 44 03 a7 3d 00 97 f5 3d 0c 26 2f 3c
       0.02371739 0.0815492 0.119916916 0.010690223
000350 d7 72 46 bd cd d7 bf 3d d9 cb 93 3d 37 3b 03 bb
       -0.048449364 0.093673326 0.07216615 -0.0020024308
000360 20 bf ae 3d f6 09 a9 3b 48 0b 32 bd fe 50 09 3e
       0.08532548 0.005158658 -0.04346779 0.13409802
000370 68 2e a5 3d b4 f0 34 bd ad 09 31 bd 4d d3 8a 3d
       0.08065492 -0.044174865 -0.04322212 0.06778584
000380 17 e9 53 3d 01 27 15 bd 1a b8 a4 3d fc 01 6b 3c
       0.051735964 -0.03641415 0.08042927 0.014343735
000390 40 68 e6 bc aa c7 60 bc a7 54 08 3d 8a c5 36 3d
       -0.028125882 -0.013719479 0.033283856 0.04462198
0003a0 f4 2f 30 3d 32 5c 4b 3d b2 e3 bf 3d 4f 66 aa 3d
       0.04301448 0.04964847 0.09369601 0.08320295
0003b0 4d 96 d0 bc 2b fa 59 3d a8 c6 db 3b 8b 8f d5 bc
       -0.025462294 0.053217094 0.0067070313 -0.026069423
0003c0 ea de 91 39 14 df 9b 3d 0b 9c b5 bc 08 7e 12 3e
       0.0002782264 0.07610908 -0.022169134 0.1430589
0003d0 a5 35 04 3d 4b ef 9a 3d b5 9f df 3d d0 09 55 bc
       0.032277722 0.07565173 0.109191336 -0.013002828
0003e0 c4 97 73 3c 11 60 fc bb 39 3e e7 3d e7 15 0a bd
       0.014867727 -0.0077018817 0.11291165 -0.033712294
0003f0 df 7e 72 3d 46 e0 48 3d cc 36 06 bd 81 cd 93 3d
       0.059203025 0.04904201 -0.032767102 0.07216931
