Zadanie2/best_model-97.95acc-2-128-2.pth (torch, 805874 bytes, 10 tensors)

lstm1.weight_ih_l0 f4 [512, 2]
000000 d8 45 37 3d 54 1f 89 bc 30 ea 57 3d 35 ae 14 bc
       0.044744343 -0.016738571 0.052713573 -0.009074737
000010 b3 b5 a9 3c 67 04 d7 3d 67 0c aa bc 6f 54 51 bd
       0.020716524 0.104988866 -0.020757867 -0.051105913
000020 d0 da c3 bd 47 67 cb bc 25 66 68 bd 55 ae 95 3c
       -0.095632195 -0.02482952 -0.056738038 0.018271605
000030 27 b6 f5 3d 30 75 7c bd 21 93 52 bd 6e 86 0b bd
       0.119976334 -0.061635196 -0.051409844 -0.03406375
000040 11 1c c3 bc 56 76 05 3d 41 de d0 3d bd 4b 0b bb
       -0.023817094 0.032583557 0.101986416 -0.002125486
000050 a0 1a 63 3d aa 55 0d 3e 80 a2 92 3d 20 3b 12 3d
       0.055445313 0.1380221 0.07159901 0.035700917
000060 5b 86 df 3c e1 73 3f bb 58 be cc bd 56 36 3e bd
       0.027285745 -0.0029213356 -0.09997243 -0.046438538
000070 3c da 89 3d 15 28 65 3d f5 ec 18 bb 63 be a2 3d
       0.06731078 0.05594643 -0.0023334597 0.0794647
000080 01 57 55 bc f3 4f 8b bc cb 94 c9 3d bc 70 93 bc
       -0.013021232 -0.017005896 0.09842833 -0.017998092
000090 46 b7 13 3d c6 76 99 3d f0 0d c1 3d db 81 8e 3d
       0.036063455 0.07493357 0.094264865 0.06958362
0000a0 e8 38 b9 bd 9a 87 f1 bd 95 a3 54 bc c6 0d 8b bc
       -0.09044057 -0.11793442 -0.012978454 -0.016974341
0000b0 f2 bb a0 bd be 5e 3c 3d c7 fb 12 3d ac ac d8 3d
       -0.07848348 0.04598879 0.035884645 0.105798095
0000c0 9e ed 80 3d 6e 89 f3 3d bc 63 3b bd 3e 9d e7 3d
       0.06295322 0.11891447 -0.04574941 0.113092884
0000d0 22 d3 8a bd 08 25 9c bd dc 18 f1 3c 3a d8 9f 3d
       -0.06778552 -0.07624251 0.0294308 0.07804914
0000e0 a1 9f a4 bd fb 7e 9b bd de 22 3c bd 89 e2 3c bd
       -0.08038259 -0.07592579 -0.04593169 -0.04611448
0000f0 fd 1c 3a 3d c6 72 dc 3b 41 ac 97 3d 38 e1 46 3d
       0.0454378 0.0067275492 0.07405902 0.04855463
000100 07 28 eb bc 9d cd 4c bd 81 82 47 3d 5b 89 be bd
       -0.02870561 -0.050000776 0.048708443 -0.09303542
000110 f5 65 2e bd 3b 9c 62 bd 5e c5 14 bb 54 87 71 3c
       -0.042577703 -0.055324774 -0.0022700648 0.014741737
000120 7b 16 b8 bd 45 f3 10 3d 29 f0 d8 bd aa 59 2e 3d
       -0.08988663 0.03538825 -0.10592682 0.04256598
000130 15 a9 a8 3d 61 cf 1e bd 86 6b 6f 3d 8e 3e 18 bd
       0.08235375 -0.03877199 0.05845215 -0.03716903
000140 17 dd 56 3c 15 98 1b 3e 18 3d b5 3d 7d 3b cf 3c
       0.013114235 0.15194733 0.08849543 0.02529692
000150 ad c4 02 bd 33 6c c8 3d e7 3e c4 bc b7 56 0d 3d
       -0.031925846 0.09786262 -0.023955775 0.034506526
000160 fa c6 bf 3d cf 0b 3e 3d bd f2 d0 bc 9f 5e a0 3d
       0.09364124 0.04639798 -0.025506372 0.078305475
000170 f3 92 66 bd d2 de 72 3d e8 9f 30 bc 4e 63 f9 3d
       -0.056292485 0.05929453 -0.010780312 0.12177144
000180 12 b3 b7 3d 41 3d b6 3d 21 5f 0c bc 93 b9 14 bd
       0.08969702 0.08898402 -0.008567602 -0.03630979
000190 4e 51 3d 3c 80 7d 6a 3d 0f 08 85 3d 52 4c a1 bc
       0.011555029 0.057248592 0.06495678 -0.019689713
0001a0 02 9a e5 bb 2a fb c3 3c f5 7c b2 bd b6 63 0c bc
       -0.0070068846 0.023923475 -0.0871524 -0.008568695
0001b0 2f 35 7a bd a0 ed 8d bd 55 27 e5 3d 29 31 0d 3e
       -0.061085876 -0.06930089 0.111891426 0.13788284
0001c0 49 48 27 bd bc 9c 98 3d fb 29 59 3d ab e7 3a 3d
       -0.04084042 0.0745177 0.05301855 0.045631092
0001d0 8f 8f f4 bb b4 30 f5 3d 6f 86 34 3d 0f 91 eb 3d
       -0.0074634026 0.1197218 0.04407352 0.11502277
0001e0 d2 b7 0d 3e ca 15 19 3e 00 fc 0c 3c aa bd 86 3d
       0.13839653 0.14949718 0.008605003 0.06579144
0001f0 be 5d a5 3c 0a a9 92 bc 2e 36 ff 3d 2e f6 09 3d
       0.020186301 -0.01790287 0.12461506 0.03368204
000200 c8 60 65 3d 1e 28 16 3d c0 0f 8c bd 33 cc 32 3d
       0.0560005 0.036659352 -0.068389416 0.04365177
000210 15 8e 0f bc 5f ee 8b bc c8 06 93 bc 49 60 15 3d
       -0.008761902 -0.017081438 -0.01794757 0.036468778
000220 18 7c a9 3d e8 55 25 3c 88 2d 3d 3c ac 1b 3c bd
       0.08275622 0.010091282 0.0115465 -0.045924827
000230 0f 75 8e 3d ca 20 6d 3b 57 dd 56 3c 59 72 73 3d
       0.06955921 0.0036182874 0.013114295 0.059435222
000240 81 b2 1e bb 0a bd ee bc 2e c4 2e 3e 9f 03 25 3e
       -0.0024215283 -0.029142875 0.17067024 0.16114663
000250 a7 12 d1 3c 4b 80 ac bd a3 0c 78 bd 78 ff f5 3c
       0.02552159 -0.084229074 -0.060558926 0.030029044
000260 98 08 94 3d f0 72 ac 3d 33 34 51 3b 4e ab 25 3d
       0.07228202 0.0842036 0.0031921982 0.040446572
000270 7f 53 1e 3d 05 9c 8c 3a 7c 10 8d 3d ca d8 07 bd
       0.038653847 0.001072765 0.0688791 -0.03316573
000280 04 ea 7f bd ff 21 cc 3c 71 04 30 bc 57 3e 0d 3d
       -0.062479034 0.024918554 -0.010743246 0.03448328
000290 48 e8 de 3d 9d 4f cf 3d 46 fe 85 3d 23 06 0b bd
       0.10884148 0.10122607 0.065426394 -0.0339414
0002a0 50 7c de 3d 50 59 94 3d fe 5b 79 bc 24 dc 0e 3d
       0.108635545 0.072435975 -0.015219687 0.03487791
0002b0 e7 8d a3 3c 32 26 0d 3d 31 88 ec 3d 71 dc 85 3d
       0.019965125 0.034460254 0.11549414 0.065361865
0002c0 c6 f5 9d 3d 37 b1 0f 3d 94 a7 30 bd 40 40 2e 3d
       0.07712893 0.035081115 -0.043128565 0.042541742
0002d0 34 64 cd bc 9f 4b 16 bc 25 ab 11 3c c3 48 06 bd
       -0.025072195 -0.009173303 0.008890902 -0.032784235
0002e0 34 a3 82 bd e6 39 b2 3c 64 f1 96 3d 37 8b 91 3c
       -0.06378785 0.021756124 0.0737026 0.017766578
0002f0 08 91 dd 3d e4 b7 22 3c f4 d7 9b 3d 1d 5e 8a bb
       0.10818678 0.009931538 0.07609549 -0.004222645
000300 d9 2e 1d be 12 32 01 be f5 49 85 bd 71 82 72 bd
       -0.15349902 -0.12616757 -0.06508247 -0.05920643
000310 cc 5d bc bc 9d f8 41 3d e5 10 0b 3d f0 ff 99 3d
       -0.022993945 0.047356237 0.03395166 0.07519519
000320 8b ae 2d bd 69 64 5f bd 10 5c d9 3d f1 ff 72 bd
       -0.042402785 -0.054539118 0.10613263 -0.059326116
000330 dc 66 69 3b ed ef 36 bd ca 72 7f 3d 2a 06 53 3d
       0.0035614287 -0.044662405 0.06236533 0.05151955
000340 cd 81 13 3d d6 10 8b 3d d9 bc f1 bb 5d 29 95 3d
       0.03601246 0.067903206 -0.0073772487 0.0728328
000350 8f 8b c1 3d 59 63 17 3e f7 45 5f 3d d9 b9 9f 3d
       0.09450447 0.14783992 0.054510083 0.077991195
000360 41 fc 82 3c 43 e2 76 bd cf fb 94 bc 9e 57 73 39
       0.015989425 -0.060274374 -0.018186478 0.00023206926
000370 34 a0 dd 3c 47 31 a5 3d ad 6e 31 bd 0d ac 35 3c
       0.02705393 0.080660395 -0.04331844 0.011088383
000380 19 93 f7 bb 96 b3 b5 3d ae 28 1d bc 70 bf 89 bd
       -0.007555377 0.08872144 -0.009592218 -0.06725967
000390 8b 21 68 bd 00 9f b1 3d 1d f4 c3 3d bf b4 11 bb
       -0.056672614 0.08672905 0.09568045 -0.0022232977
0003a0 01 f1 f5 3c 2a 5c 72 bd bc bf 45 3d bb 10 fd 3c
       0.030022146 -0.059169926 0.048278555 0.030891767
0003b0 0f d6 aa 3d 2f b5 24 bd 8e 14 e1 3c 7d a6 1e 3d
       0.0834161 -0.040211853 0.027475622 0.038732994
0003c0 0a 4a 8a bd 2a e2 7f bd 88 02 12 3d d5 ee 18 3d
       -0.06752403 -0.062471546 0.035646945 0.037337143
0003d0 36 d5 a6 3d 85 f2 0a 3e 58 c8 9a 3d 05 1d d1 bc
       0.081461355 0.13569076 0.07557744 -0.025526533
0003e0 85 6a 79 3d ec 53 a7 3d c9 87 88 3d 1a 98 51 3d
       0.0608926 0.08170304 0.06666524 0.051170446
0003f0 92 79 96 bd ab b1 a6 3c 56 57 4e 3c 84 87 ee 3c
       -0.073474064 0.02034839 0.012594065 0.029117353

lstm1.weight_hh_l0 f4 [512, 128]
000000 bb eb 8f 3d 47 c5 42 bc 71 72 b5 3d cb de 10 3e
       0.07027384 -0.011887855 0.088597186 0.14147489
000010 dd f6 0a bd 66 6e 35 bd 9c 5c 6a bd 7f 05 5d be
       -0.033926833 -0.044294737 -0.057217225 -0.21584128
000020 97 c5 a2 bc 3c 8e 66 bc 3f dc 0c 3e e4 97 8e bd
       -0.019869609 -0.014071997 0.13755892 -0.069625646
000030 c4 d6 80 3c 78 e5 b5 3d 80 e8 17 3d 23 db 2f bd
       0.015727408 0.08881658 0.037086964 -0.042933594
000040 90 94 b7 bd 03 5a e1 3d 28 83 a3 3d 24 c2 01 be
       -0.08963883 0.110034965 0.079840004 -0.12671715
000050 7e 9e d9 3c 94 d2 e4 3d c5 49 34 3d 22 19 c3 bc
       0.026564833 0.11172977 0.044015665 -0.023815695
000060 7c b6 c4 3d 60 77 8b bc ec a0 b0 bc a1 4b ae bd
       0.09605119 -0.017024696 -0.021561109 -0.08510519
000070 cd 8b af 3c 23 ee 69 3d 11 f8 b0 bc 9b 91 9f 3d
       0.021428967 0.05711187 -0.021602662 0.07791444
000080 74 88 00 3d eb 89 be bd a8 fe a9 bd ec c1 5c bd
       0.03138013 -0.093036495 -0.08300525 -0.053895876
000090 32 6f de bb 27 d9 21 bd 9d 85 1c bd 8a 85 17 be
       -0.006788158 -0.039513733 -0.03821336 -0.14797035
0000a0 d3 5c cf bc 1a 9b 00 3e ac d1 fa ba cc 40 da 3c
       -0.025312817 0.12559167 -0.0019135973 0.026642226
0000b0 1c 1f 05 bd de c3 74 bd eb cf 19 3d dd a2 e8 bd
       -0.03250037 -0.059757106 0.0375518 -0.11359189
0000c0 57 26 e2 bd 0b 3a 13 be 04 4e da bd c5 63 ae 3c
       -0.11042469 -0.1437761 -0.106594115 0.021287808
0000d0 9f 69 29 bd 45 32 84 bc 8d 36 01 3c 3c 7f 1c be
       -0.041360494 -0.016137252 0.007886541 -0.15282911
0000e0 c3 85 a5 bd f5 4e 07 3d 72 24 b9 bd 3f e1 ae 3d
       -0.08082154 0.033034284 -0.090401545 0.08539056
0000f0 ad b4 73 3c 3e 7f 1d 3d f7 d5 9e 3d 05 c4 a2 bd
       0.014874619 0.038451426 0.07755654 -0.07947544
000100 57 6b 2b 3e 25 8b d5 3c 81 ae 9e bc e1 be 8c bd
       0.16740166 0.026067326 -0.01937032 -0.06872345
000110 8d a9 ca 3d 1a ff 5c 3d 17 06 a4 3d 13 e6 05 3d
       0.098956205 0.05395422 0.08008974 0.03269012
000120 f9 13 94 bd 13 90 00 bd f0 b4 92 bb ee 7a d0 3d
       -0.07230372 -0.0313874 -0.004477136 0.10179697
000130 78 09 9c bd 42 98 b3 3c 3b f6 56 3c f2 c0 87 3c
       -0.076189935 0.021923188 0.013120229 0.016571496
000140 9f 8f cd 3b ee 1d b0 3d 9c 6b 33 bc 05 fb 17 3d
       0.0062732245 0.08599459 -0.010950949 0.037104625
000150 09 67 8f bd 35 ba be bd 03 c3 c2 3d e0 ad 92 3a
       -0.07002074 -0.0931286 0.09509852 0.0011190735
000160 09 58 34 3c 66 20 0a bd 95 ec 1a 3d 99 6a 29 3d
       0.011007317 -0.033722304 0.03782328 0.041361425
000170 48 35 22 bd 40 c1 83 3d 76 83 ed bc 7d e8 4d bd
       -0.039601594 0.06433344 -0.02899335 -0.050270546
000180 cf bb b8 bd 12 d1 a1 3d 2c c3 2e bd d3 f0 2e bc
       -0.09020197 0.07901205 -0.0426666 -0.010677534
000190 d5 c2 44 3d df 76 9b bd 77 18 a1 3c e7 00 b3 bd
       0.04803737 -0.07591032 0.019664986 -0.087404065
0001a0 11 94 a2 bc fb a7 83 bc d6 27 d7 3c ff 9a db bc
       -0.019845994 -0.01607131 0.026264112 -0.026807306
0001b0 d3 44 60 3d 5b c2 ae 3d 1f fe 8c bd f8 e2 12 bd
       0.054753136 0.08533164 -0.06884407 -0.035860986
0001c0 1f 95 e2 3c 6c 73 4c 3e 32 3b 8d 3d 6b 50 77 bc
       0.027658997 0.19965905 0.06896056 -0.015094857
0001d0 62 2d fc 3d ed 49 39 bd 97 7d 9d 3d 33 8e 72 3d
       0.123133436 -0.045236517 0.0768997 0.059217643
0001e0 d9 b1 bb 3c 97 f8 1d 3d f4 6a 7b bd bf e9 20 bd
       0.022911953 0.038567152 -0.061381295 -0.039285418
0001f0 2d dd 07 3c f1 d1 1c 3e c2 81 2d 3e 62 90 c3 bd
       0.0082924785 0.15314461 0.1694403 -0.09549023
000200 9d 41 12 bb f3 58 cf 3c 45 91 a9 bc 51 99 e2 3c
       -0.002231694 0.025310969 -0.020699153 0.027660998
000210 eb e9 23 bd ed 7d 26 ba 25 31 a6 3d 7a 5c e8 3d
       -0.040018003 -0.0006351162 0.08114842 0.113457635
000220 1d f0 64 bd 60 4d 0f 3e 17 ea d0 bb 30 66 7d bd
       -0.055893052 0.1399436 -0.006375562 -0.06186503
000230 e2 b1 29 bb 72 c3 81 bd 90 c3 7b 3d cf 96 0c bd
       -0.002589338 -0.06336106 0.0614658 -0.03432351
000240 cc 69 1c bd 7d 01 f9 3b e7 7a 8f bd be 50 1f 3e
       -0.038186833 0.0075990544 -0.07005864 0.15558144
000250 d7 97 bc b8 49 fb ce bb c4 15 76 3c d6 0f 96 bc
       -8.992821e-05 -0.0063165766 0.015019838 -0.018318098
000260 7c a6 23 be 4f 1d 22 bc f1 50 85 3c a6 78 59 bd
       -0.15981477 -0.009894683 0.016273947 -0.053093575
000270 6a 55 a5 3d 93 cf 36 bd de 8a 61 bc 38 8a 5d 3c
       0.08072932 -0.044631552 -0.013766019 0.013521723
000280 8c 67 cc bd fc f6 64 bd 4c 13 60 bd 99 5b dc bd
       -0.099806875 -0.055899605 -0.054705903 -0.10759658
000290 f4 4f 4a 3d 8e dd b5 bd 79 9d 62 3d 7d d4 c7 bd
       0.049392655 -0.08880149 0.05532596 -0.09757326
0002a0 d9 13 02 bd 97 df e8 bd 62 89 be bd dc 0b de bd
       -0.03175721 -0.113707714 -0.093035474 -0.10842106
0002b0 26 e8 59 bd e7 8a 5e 3c 58 fb cb bc 7c 24 79 3c
       -0.05319991 0.013582922 -0.024900123 0.015206452
0002c0 bd f0 d3 3c 58 e1 2e 3d b4 c0 2e 3d 46 97 64 3a
       0.025871629 0.042695373 0.042664245 0.0008720051
0002d0 0b 79 49 3d e0 b5 18 bd 27 49 c3 3d b4 03 a5 bc
       0.0491877 -0.037282825 0.09535437 -0.020143367
0002e0 fd 46 7f 3d 2a 28 dd bd e2 11 80 bd 11 21 34 3d
       0.06232356 -0.10798676 -0.06253411 0.043976847
0002f0 ca 27 18 bd 2b e0 00 bd 1f 75 9e bd d3 8e c3 bb
       -0.03714732 -0.031463783 -0.07737183 -0.0059679537
000300 f9 7b a5 b7 39 83 b5 3c 83 fc 05 3e 1b 6a eb bb
       -1.9727262e-05 0.022157298 0.13084607 -0.0071842796
000310 72 58 3c bd b4 3f b9 3d 86 c0 fb 3c 1d 99 89 3d
       -0.045982786 0.090453535 0.03073145 0.06718657
000320 05 44 14 bd a6 18 0d 3d 07 01 51 3d cc 93 b6 bc
       -0.03619768 0.034447335 0.05102637 -0.022287272
000330 f7 fb 52 3d 09 fb ca bd 97 35 82 b9 fc 9f 47 3b
       0.051509824 -0.099111624 -0.0002483546 0.0030460348
000340 3d 73 c8 3c 88 42 14 3d 41 df 80 bc c1 69 65 bd
       0.024469012 0.03619626 -0.015731456 -0.056009058
000350 e2 5a dd 3d 3a 5e d1 3d 57 eb bc bd 15 a9 b0 3d
       0.1080835 0.102230504 -0.09224575 0.08626
000360 4b fb e4 bd b8 30 ab bb c0 ea 38 bd df b0 b1 3d
       -0.11180743 -0.0052243136 -0.04514575 0.086763136
000370 89 f1 46 3d 3d 36 9c 3d ea f0 64 bb 56 5b 8f 3d
       0.04857019 0.07627533 -0.0034933635 0.06999843
000380 eb d8 f5 3b 90 75 0a 3d 31 64 87 3b 74 7b 34 bd
       0.0075026653 0.033803523 0.004131817 -0.044063047
000390 75 d1 3d bd 0d e8 46 3c d4 08 3e 3d 9a 36 bb bd
       -0.046342332 0.012140286 0.046395138 -0.09141274
0003a0 93 e1 d3 bd 9e 58 44 3c dd 94 da 3d 68 3a 90 bc
       -0.10345759 0.011984019 0.10672925 -0.017605975
0003b0 d2 7f df 3c 72 92 9d bd 46 8a 7d 3d e3 98 a4 3d
       0.02728263 -0.07693948 0.061899446 0.08036973
0003c0 71 93 57 3d 8c aa 3c bc 9a 3e a7 3c e2 c2 43 3d
       0.052630845 -0.011515271 0.020415593 0.047793277
0003d0 13 3a 98 bd f9 5b ad 3d a6 b1 2f bd 6c a8 fe 3c
       -0.07432952 0.08464808 -0.042894028 0.03108617
0003e0 37 95 9d 3d ed f5 f5 3d 88 24 a3 3d 2e cd 42 bd
       0.07694476 0.12009797 0.07965952 -0.047558956
0003f0 e2 2f ad bd 5b cd 41 3d 03 c2 eb bd 9c c8 2d bd
       -0.084563985 0.047314983 -0.11511614 -0.042427644

lstm1.bias_ih_l0 f4 [512]
000000 6c 46 00 3d eb 31 f3 3c c6 11 02 3d 3d 35 10 3c
       0.03131716 0.029686889 0.03175523 0.0088017555
000010 dc 63 4e 3d 16 eb 91 bc f0 da 62 bd da a4 9b bc
       0.050388202 -0.017812293 -0.055384576 -0.018999506
000020 0a 84 64 bd 43 d8 11 3b e0 26 1b 3e d7 9b 58 3d
       -0.055789985 0.0022254146 0.15151548 0.052882995
000030 4d 17 b9 3d bd 2f bb 3d 50 eb 42 3d 45 1e ab 3d
       0.090376474 0.09139965 0.047587693 0.08355383
000040 01 47 e3 3d 67 64 86 bc f1 39 56 3c 22 e5 a1 3d
       0.11097527 -0.016405297 0.013075338 0.07905032
000050 67 40 09 3e be 0f 86 3d 7e 71 bc bb dd c4 6e bd
       0.13403474 0.06545971 -0.005750834 -0.058293212
000060 52 f0 73 bc cf 76 84 3b a0 e7 04 3e fe 31 eb bc
       -0.01488884 0.0040424834 0.12978983 -0.028710362
000070 c6 08 2d bd 45 e7 70 3c 7c 99 db 3d 12 7b 3d 3c
       -0.042244695 0.014703576 0.10722634 0.011564987
000080 f8 9a 61 bd 23 04 52 3d 27 dc cc bc 26 20 24 bd
       -0.05507943 0.051273476 -0.02500732 -0.04006972
000090 1e 69 28 3d 4d ad b9 b9 ab a2 31 3d c2 0b d9 3b
       0.041115873 -0.0003541507 0.043368023 0.006623716
0000a0 37 ce 60 bd e2 d7 0f 3b e2 4d 60 3d 46 4d d9 3d
       -0.05488416 0.0021948745 0.054761775 0.10610442
0000b0 83 0c 86 bd ae a2 98 bd 85 8b 09 3a 4a ba 62 3d
       -0.06545355 -0.07452904 0.0005246925 0.05535344
0000c0 ac ef 1d bd f7 3a 1e 3e bb 3d 6f 3d 2d 18 4f bd
       -0.038558647 0.15452181 0.05840848 -0.050560165
0000d0 17 e0 76 3d b7 23 75 3d 7d 42 2b 3a 7b 2a 84 bd
       0.060272302 0.059848513 0.000653304 -0.06453415
0000e0 3e d7 67 bd ff 70 fc 3d 70 98 83 3d 87 0a bb 3d
       -0.056601755 0.1232624 0.064255595 0.09132867
0000f0 23 08 a1 3c 52 1c 11 3d ec 5b fc 3d 4a 82 58 3c
       0.0196572 0.0354274 0.1232222 0.013214657
000100 42 30 a2 3d f9 24 2c 3e b1 c9 78 bc ea 9e 13 bd
       0.07919361 0.16810979 -0.015184806 -0.036040224
000110 10 5d a5 3d 49 3d 17 3e 6f c2 d6 3d 1c 48 4f 3d
       0.08074391 0.14769472 0.10486304 0.05060588
000120 07 fe a2 3d 4e f8 39 3e 67 f7 c7 3d 51 0b 98 bd
       0.07958608 0.18161127 0.09763985 -0.074240334
000130 3f 68 b9 bc d8 1c 19 bd b2 00 ce 3b 07 7b e3 b9
       -0.022632716 -0.037381023 0.006286704 -0.00043388476
000140 78 2c 2f 3d 3b 70 e7 bc a4 f4 ba 3c f1 21 c2 bd
       0.042767018 -0.028251758 0.022821732 -0.0947913
000150 6a cb a4 bb 06 ba 0f 3e 8d 1c b4 bc a3 03 f0 3d
       -0.0050291317 0.14035806 -0.02198627 0.11719444
000160 10 59 e8 3c 06 87 b7 3c ee bb 02 3e c3 f7 b0 bd
       0.02836278 0.022403251 0.12767002 -0.08641007
000170 e0 72 e4 ba 31 c8 41 3d 77 81 11 3d b1 ea 7e 3d
       -0.0017429255 0.047310058 0.035523858 0.062235538
000180 ef 2e c6 bb 55 6c c9 3d 1f 52 ab 3d fd fa 3d bd
       -0.0060480754 0.09835116 0.08365273 -0.04638194
000190 63 ff ee 3d 1f 13 7d bd 7f ba 13 3d 22 c3 f7 3d
       0.11669805 -0.061785813 0.03606653 0.120977655
0001a0 a0 9e 2e bd 46 44 f8 bd a8 ca 53 3c c5 70 71 bd
       -0.042631745 -0.12122397 0.012926735 -0.058945436
0001b0 c9 0c 5e 3d 78 47 ef 3b 45 c5 b9 3d f7 3a 63 3d
       0.05421141 0.007302221 0.09070829 0.055476155
0001c0 4a c3 d6 3b e2 74 90 bc 4c ee 1f be 0f 01 9c 3d
       0.006554042 -0.017633859 -0.15618247 0.076173894
0001d0 32 3a c6 3d bc 91 d0 bc 55 d4 a6 3d b5 18 0d 3e
       0.096790686 -0.025460117 0.08145968 0.13778956
0001e0 ff ec 9c 3d 5b db 2b bd ea 05 db 3c 73 d7 d3 bb
       0.07662391 -0.04195724 0.026736218 -0.0064648925
0001f0 cf 95 dd bc 3c 7c fb bb 5c d4 34 3d 47 08 87 3c
       -0.027048973 -0.007674722 0.044147834 0.01648344
000200 a6 8b c7 bc fa 09 8e bd fa 37 bd bd 3e 96 92 3d
       -0.024358582 -0.06935497 -0.09239192 0.07157563
000210 2a 7a d7 3c 8e 86 d7 3b f0 55 93 bc a9 7c 36 bc
       0.02630337 0.0065773195 -0.017985314 -0.01113812
000220 e9 91 11 bd f8 9e ec 3d fc f3 4c 3d 69 95 64 3d
       -0.03553954 0.115537584 0.05003737 0.05580655
000230 8d 1b 1d 3d 41 80 3b 3d 1f ee d7 bc 14 4d ee 3d
       0.038356353 0.04577661 -0.026358662 0.11635795
000240 9a d4 85 bd 54 b5 15 3c 03 ea 86 3d e3 97 94 bd
       -0.06534691 0.00913747 0.06587603 -0.072555326
000250 06 c7 d2 3d 7a 88 40 3c 12 db cf 3d 44 d2 f2 bc
       0.10291867 0.011751289 0.10149206 -0.029641278
000260 1e fe 32 bc a5 ad 92 3d 7d 91 63 bd 87 d2 b3 bd
       -0.010924844 0.07162026 -0.05555867 -0.08780389
000270 94 16 04 3e 3d 19 cf 3c 1c 24 96 3d 2f e3 20 3d
       0.12899238 0.02528059 0.07331106 0.03927916
000280 40 6c 73 3d 3a 28 f1 3c 5e 9f d2 3d dc 6e ca 3d
       0.059429407 0.029438127 0.10284303 0.09884426
000290 52 8d 7a bd 3b 3a da 3d 77 c0 aa bd 14 3f 46 bd
       -0.06116993 0.10655638 -0.08337491 -0.0484
0002a0 c4 41 bf 3d 60 9e e8 bc 60 6a 18 3d 1b c2 91 bc
       0.09338716 -0.028395832 0.037210822 -0.017792752
0002b0 f5 e5 9c bd dd 31 95 3d 55 82 a4 3c 2b 77 18 3d
       -0.07661048 0.07284901 0.020081678 0.037223022
0002c0 6c 4c 37 bd 52 5b cd bc 31 8d f9 3b 04 3e a2 3d
       -0.044750616 -0.025067959 0.0076157083 0.07921985
0002d0 a5 9f 28 3d f6 b7 be 3d 13 32 e2 3d 78 92 98 bc
       0.041167874 0.093124315 0.11044707 -0.01862453
0002e0 a0 19 ee bc 10 2e 23 3d 61 11 65 ba 3c 42 78 3c
       -0.029064953 0.03983885 -0.00087382464 0.01515251
0002f0 7f 16 dd 3d ca bd 42 bd 5a a3 86 3d 5a 5d b1 bc
       0.107953064 -0.04754428 0.065741256 -0.021650959
000300 39 ae 00 3b 33 06 53 3d 63 5c 08 3d ac 5a 84 bc
       0.0019635095 0.051519584 0.03329123 -0.016156517
000310 f6 49 e1 bb f9 bb c9 3b c8 09 16 3e 10 04 c6 bd
       -0.006875272 0.0061564413 0.14652169 -0.096687436
000320 0c 31 00 bd 33 aa 5a bd e9 02 d0 3d 1b e7 1f 3d
       -0.031296775 -0.05338497 0.10156805 0.03903876
000330 5f 8d 87 3c e7 fa 06 3d 03 f8 70 3c e2 a5 09 bd
       0.016546903 0.032954123 0.014707568 -0.033605464
000340 78 15 00 bd 24 23 af 3d d6 70 ff bc b6 24 4e bd
       -0.031270474 0.085516244 -0.031181734 -0.05032798
000350 9e ca c4 3c 80 38 73 3d 33 b7 87 3d 85 53 87 3d
       0.024022397 0.059380054 0.06626739 0.06607727
000360 50 5b d3 3c 90 ae b4 3d c9 d6 e0 3d 24 36 1e bd
       0.025800377 0.08822358 0.10978467 -0.03862585
000370 7b 91 f6 3c f1 e4 46 3d ad 89 e1 3d bd 67 74 bd
       0.030098667 0.04855818 0.11012588 -0.059669245
000380 e3 ed 8d 3d dd ae b3 3d e4 d5 e8 3d 24 36 a9 bd
       0.06930139 0.08773587 0.113689214 -0.0826228
000390 fd 4c e9 3c 5c ed 9b 3d 43 ac 04 3e 9d 07 04 3e
       0.028479094 0.07613632 0.12956338 0.12893529
0003a0 1c 3a fd 3d 2c 01 dc bd ba 46 e6 3c 42 bf 22 3b
       0.12364599 -0.10742411 0.028109897 0.0024833237
0003b0 c8 51 9c 3d 7d 41 9d bc 4d 40 5e 3c 9b 12 fa bb
       0.07632786 -0.019196266 0.013565135 -0.0076316125
0003c0 8a f0 9e bd e0 80 30 3d bb 12 2f 3c be cd dc bc
       -0.07760723 0.043091655 0.010685618 -0.026953574
0003d0 c9 36 a7 bc d4 92 ff 3c 2c 79 24 bd 64 ca 29 bc
       -0.020411866 0.031197943 -0.04015462 -0.010363195
0003e0 16 a2 a3 3c 64 b2 72 bd 69 e5 fb 3b 1e 41 63 3b
       0.01997475 -0.059252158 0.00768726 0.0034676264
0003f0 20 7b b6 bc 7b 1d 32 bc 4a 8b ef 3c 2c 9b 8e 3d
       -0.022275507 -0.0108712865 0.029241223 0.069631904

lstm1.bias_hh_l0 f4 [512]
000000 5d 1c 44 bd 8b 87 6e 3d a7 27 9d b8 e4 85 95 3d
       -0.04787861 0.058234733 -7.493729e-05 0.07300928
000010 c7 97 78 3d b2 01 eb bc ff c1 fb bc f0 70 52 bd
       0.06069162 -0.028687332 -0.030732153 -0.051377237
000020 23 db 09 3d c5 72 7f bd 56 10 a0 3d da be 69 3d
       0.03365625 -0.062365312 0.07815616 0.057066776
000030 57 e4 03 3a dc 16 18 3e 8f 47 91 3d 48 bf ea 3d
       0.00050312787 0.1485247 0.07093727 0.11462265
000040 08 36 75 3d a8 86 ce 3d 4c 55 3c 3d 84 86 84 3d
       0.05986598 0.100842774 0.045979783 0.06470969
000050 d1 03 0a 3d 40 1c 34 3e 9b 9f bf 3d 0f 81 98 3d
       0.033695046 0.17588902 0.09356614 0.07446491
000060 ac ee 2f bc a7 52 4d bd 45 46 57 3d 71 8e d4 bc
       -0.010738056 -0.05012765 0.05255725 -0.025946828
000070 26 94 a6 3b a3 c4 73 3d ae ef 74 3d 08 a9 97 3d
       0.0050835786 0.0595137 0.05979889 0.07405287
000080 e5 1a b6 3c a3 10 b0 3d 26 2f 37 3c da 9c 94 3d
       0.022229621 0.08596923 0.011180675 0.072564796
000090 74 9e cc 3c 14 0e cc 3c 70 5d 69 bd e5 3d f9 3d
       0.0249779 0.024909057 -0.056973875 0.121700086
0000a0 66 63 15 bd 6e 3a 88 bd 5e 81 7f bd 7a a7 32 3d
       -0.036471747 -0.066517696 -0.062379234 0.04361675
0000b0 52 bc a4 bc c7 4d 4e 3d 3f 5b 06 3e f6 b8 be 3b
       -0.02010933 0.050367143 0.13120745 0.005820389
0000c0 5a 21 f2 bc 86 4e d5 3d e0 56 c7 bd 7e cf 81 3b
       -0.029556919 0.10415368 -0.09733367 0.0039615026
0000d0 79 2b 96 3d fc 8c 80 3d 37 33 ce bb 43 7e 9d 3d
       0.073325105 0.06276891 -0.0062927264 0.07690098
0000e0 d3 47 30 bd 4f 4b f2 3c ce b3 13 bd 2d 1d ae 3d
       -0.043037247 0.029576926 -0.036060147 0.085016586
0000f0 e8 6b 1b 3e 2d c2 98 3d 5c f3 d2 3c e3 e3 47 3d
       0.15177882 0.07458911 0.025750808 0.048801314
000100 47 e6 c6 3d 8c c9 76 3d 3e 80 93 bd ef ac b2 3d
       0.09711891 0.060250804 -0.07202195 0.08724391
000110 e4 91 40 bd e2 6c 73 3d ae b7 14 3e 44 e3 1f 3d
       -0.047014132 0.05943001 0.14523193 0.039035097
000120 a2 0a 56 3d b3 6b ea 3c 5c 45 03 bd 36 43 ce bd
       0.052256234 0.028615808 -0.032048568 -0.10071413
000130 a1 8e b0 bd b5 f8 55 3d 56 5a 91 bc 7d 65 91 3d
       -0.08620954 0.05223914 -0.01774327 0.070994355
000140 9f 43 d7 bc d1 4c 30 3c 30 75 7d 3b 90 fa d5 3c
       -0.026277361 0.010760502 0.0038674586 0.026120454
000150 de a3 e8 3d 0b 23 08 3e 7f be ef 3d dd d8 6c bb
       0.1135938 0.13294618 0.11706256 -0.0036140003
000160 c3 1f 3a bd 35 26 12 3e 5f 40 12 3e 58 91 32 3c
       -0.045440447 0.14272387 0.14282368 0.01089891
000170 ed 66 0c bd 15 9c df bd 0c 77 83 3d 7b ce 27 bc
       -0.034277845 -0.10918442 0.06419191 -0.0102421
000180 d9 81 df bc 03 bb d4 bc c4 31 8e 3d 57 f5 3c bd
       -0.027283596 -0.02596808 0.06943086 -0.04613241
000190 b9 c0 6c 3d 77 fe 39 bd fc 6c ff 3d 6f b5 0f 3d
       0.057800982 -0.045408692 0.12471959 0.035085138
0001a0 ff 2b f4 bc 34 7d af bd d5 2f 4c 3b 55 99 af bd
       -0.029806135 -0.085688025 0.003115644 -0.08574168
0001b0 0a 6b 16 3d 57 46 04 3d 59 4e 94 3c fb a3 57 3d
       0.036723174 0.032293644 0.018103765 0.05264662
0001c0 61 52 11 3e 04 c5 02 3d 7e 48 01 be f3 d9 07 bd
       0.14191581 0.03192617 -0.1262531 -0.033166837
0001d0 fb dd 0d 3e 50 e2 81 3c 48 c1 f2 3c 19 34 0c 3e
       0.1385421 0.015854985 0.02963318 0.13691749
0001e0 cf fa 97 bc 49 f6 b9 bd df b8 25 bd de 94 27 3d
       -0.018552212 -0.09080178 -0.04045951 0.040913455
0001f0 02 a3 83 3d 38 ee dc 3d 6e 74 27 bd 67 b6 2a 3c
       0.06427576 0.10787624 -0.04088252 0.010419465
000200 0b 5d df 3d 46 11 35 3b dc b2 9f bd 5a 50 cb 3d
       0.109064184 0.0027628704 -0.077977866 0.09927435
000210 37 98 2e 39 4b 43 0e 3d 70 81 bd 3d 03 0f 6d bb
       0.00016650638 0.034732144 0.09253204 -0.0036172278
000220 1c 1a 22 3d 1a cb 73 3d 79 e6 97 3d 63 a4 9d 3d
       0.03957568 0.059519865 0.07417006 0.0769737
000230 5a d8 62 3c 17 87 00 3d 98 fb 22 3d ac 78 62 3d
       0.013845528 0.03137883 0.03979072 0.055290863
000240 20 03 6c 3d 52 d9 e2 bd 8d 3d bb 3d fc 22 a1 3c
       0.057620168 -0.11076607 0.09142599 0.019670002
000250 23 80 30 3e 6d 67 54 3c 42 92 84 3d fa 2c 77 3d
       0.1723638 0.012964112 0.06473209 0.060345627
000260 48 34 cb 3d e1 f7 67 bd 75 bf 9c bc da b0 4e bd
       0.09922081 -0.05663288 -0.019134263 -0.050461628
000270 f4 18 13 3e 5c f2 16 3d eb 08 b0 3c 92 92 23 3d
       0.14364988 0.036852226 0.021488627 0.039934702
000280 63 bc 22 bd 71 ae 64 3d 88 fc 25 bb 1c b1 d7 3c
       -0.03973044 0.055830423 -0.0025327522 0.02632957
000290 e4 49 11 3c 3d ec 15 3c 99 36 93 bd e1 44 3d 3d
       0.008867715 0.009150562 -0.07188148 0.046208266
0002a0 12 57 b2 3d 54 25 76 bd 8a b9 6c bd 6c fe 0f 3c
       0.087080136 -0.060094193 -0.05779413 0.008788686
0002b0 f5 6a b6 bd 76 cf 69 3d 38 ab cd 3d 46 04 8a 3d
       -0.08907119 0.057082616 0.10042423 0.06739096
0002c0 dd 2a a9 3c 2f 5d 3c 3d 5f d2 4e 3d e7 24 86 bb
       0.020650322 0.045987304 0.050493594 -0.0040937546
0002d0 0b e2 a3 3c cb 67 66 3d 71 56 c9 bc f8 05 45 3b
       0.020005247 0.05625133 -0.024577351 0.0030063372
0002e0 cc 0d 50 bd 41 f5 0e 3d b4 7b 81 bd f3 03 56 3d
       -0.050794408 0.03490186 -0.063224226 0.05224986
0002f0 0b 2b 36 3d cf 6e e1 3c 9b 12 48 3d 51 54 05 3c
       0.044474643 0.027518658 0.04884587 0.008137778
000300 d5 dd 5f bc 1f f3 2d 3d 13 be 4f 3d 0a fd 4a 3d
       -0.013663729 0.042468186 0.05071838 0.049557723
000310 72 a8 aa 3d 37 89 c0 bc f0 94 f7 3d 96 3d f3 bc
       0.0833291 -0.02350293 0.120889544 -0.029692452
000320 ba 4b 56 bd 9a 02 19 bd 03 d9 c7 3d c6 a9 bb bd
       -0.052318312 -0.037355997 0.097581886 -0.09163241
000330 3d c2 bb 3d 0b 96 d5 3c be c3 95 3c 92 03 c9 b9
       0.091679074 0.026072523 0.018281814 -0.00038340368
000340 2a 90 79 3c de 63 a7 3d 14 99 53 3d fb c8 80 bc
       0.015232125 0.08173345 0.05165966 -0.015720835
000350 25 41 e3 bb 85 dd d5 3d 5c e9 11 bd b3 49 01 3b
       -0.006935256 0.10442642 -0.03562294 0.0019727766
000360 c4 60 68 bd cc 57 03 3e 19 e1 ea bc e6 8d 04 3d
       -0.056732908 0.1282646 -0.028671788 0.032361887
000370 e0 c1 1b 3e 8d ec f4 bc 87 5e eb 3d e5 d0 28 3d
       0.15210676 -0.029897952 0.11492639 0.041214842
000380 5c c6 9b 3d 35 e8 25 bd c8 0f b8 3d ce 7a a2 3c
       0.076061934 -0.040504653 0.08987385 0.019833948
000390 86 88 b1 3d 12 52 4a 3b b4 28 fd 3d aa 29 ef 3d
       0.08668618 0.0030871672 0.12361279 0.11677869
0003a0 09 d4 db 3c 86 ff 3c bd f4 26 e6 bc 74 e1 2a bd
       0.026834505 -0.046142124 -0.028094746 -0.041718915
0003b0 94 6f b2 39 7b f2 53 bd b4 59 6d 3c 8b dc 93 bc
       0.00034033938 -0.05174492 0.014486719 -0.018049499
0003c0 41 55 9a bd b9 a5 b2 3c aa 29 30 3c 81 56 ae 3d
       -0.07535792 0.021807538 0.010752121 0.08512593
0003d0 97 02 d4 3d 65 b6 af bd da b3 1b bd 20 ef ac 3d
       0.103520565 -0.08579711 -0.038013317 0.08444047
0003e0 87 d6 a6 3d 7f e4 a7 bd 42 dd 52 3d 4f 48 a8 3d
       0.081463866 -0.08197879 0.05148054 0.08216917
0003f0 22 7b 7c 3d 08 2b ad bc 68 5f 89 3d f2 64 d8 3c
       0.061640866 -0.021138683 0.067076504 0.026415322

lstm1.weight_ih_l1 f4 [512, 128]
000000 cd 2a b2 bd 22 9f 79 bd 9f 8b 1a bd 89 77 81 3d
       -0.0869957 -0.060942777 -0.03773081 0.06321628
000010 28 dc 9a bd 14 96 70 bd 7b ba df bd 68 da c6 bc
       -0.07561523 -0.058736876 -0.1092424 -0.024274066
000020 23 7c 40 3d d8 eb 5d bc 4b fe b9 3c a5 48 91 bd
       0.046993386 -0.013544999 0.022704264 -0.07093934
000030 0a e1 f7 3d 2a 4a c0 3b 44 28 06 3d a8 9c bd bd
       0.1210347 0.005868216 0.032753244 -0.092583954
000040 65 6f fc bd ee b8 89 3c 91 71 b9 bd f7 2a 8a bd
       -0.12325934 0.016811814 -0.09054864 -0.06746476
000050 42 6f 55 bd 74 af 85 bd d2 6a f6 3c 5c f0 06 3d
       -0.052108057 -0.06527606 0.030080233 0.03294407
000060 5f 67 11 bd 85 1e eb bc 43 33 d2 bc 6a 82 56 bd
       -0.035498973 -0.028701076 -0.02565921 -0.052370466
000070 be 12 ff bd 6e c7 76 bd 07 65 81 bd 86 9b 51 bd
       -0.12454747 -0.060248785 -0.063180976 -0.05117371
000080 c4 1b ba 3d 0c 6c a9 3c 4f 3c b4 3c c2 a5 b0 bd
       0.09087327 0.020681404 0.022001414 -0.08625366
000090 fa 6d 5a bd c4 e5 68 bd e1 87 73 bb 51 4a 90 bc
       -0.053327538 -0.056859747 -0.0037159848 -0.017613562
0000a0 ec fd 91 bd bf 6c 82 bd 00 69 db bd 37 eb dd bd
       -0.0712851 -0.06368398 -0.107133865 -0.10835879
0000b0 d4 d5 dd bd e0 50 68 3c 6b df 8b 3d c7 b9 8a bc
       -0.108318 0.014179438 0.06829723 -0.016934289
0000c0 bd 74 f2 3c f9 c0 bf bd d4 57 03 3d 27 1d cc bd
       0.02959668 -0.093629785 0.03206618 -0.09966498
0000d0 cb 8b 4c bd 63 1e 58 bd e3 82 01 3d bc ba b9 bd
       -0.049938004 -0.052763354 0.031618964 -0.0906882
0000e0 e3 dd 18 3d 86 09 89 bd f6 df 41 bd e1 fb 18 3e
       0.037320983 -0.066912696 -0.047332726 0.14939834
0000f0 f7 52 b1 bd ca bb 68 3c 20 92 05 3d bb 68 dc 3d
       -0.086584024 0.014204929 0.03261006 0.10762163
000100 cf 64 a1 3c 0a 85 de bd 00 1f f4 bc 65 f9 6c 3c
       0.01970139 -0.10865219 -0.029799938 0.014463757
000110 ae 7b 7f 3c e2 dd 24 3d b2 b5 c9 3d 8f 3b de bd
       0.015593452 0.040250666 0.09849109 -0.10851204
000120 8c 81 3a 3d a4 e4 87 3c d7 7a 1d 3d b2 7e c4 3c
       0.0455337 0.016588517 0.038447227 0.023986194
000130 01 2b 50 bd 95 07 77 bd 9f d9 9b 3d 1e b2 69 bd
       -0.05082226 -0.060309965 0.07609867 -0.05705463
000140 60 d7 4f 3d fa 32 3b 3c cc 34 8e 3d ab 04 67 3d
       0.050742507 0.011425728 0.06943664 0.056400936
000150 ca fb b5 3d 81 a5 a7 bb 95 27 65 3d bb fc d6 bb
       0.088859156 -0.005116165 0.05594595 -0.0065608895
000160 ba f6 c9 3d 16 fc 6a bd 02 40 80 3c 98 62 96 3d
       0.098615125 -0.057369314 0.015655521 0.07343024
000170 a9 5f 97 3c 02 bc fd bb a4 ed 71 3d 0d 2c 2d bd
       0.018478232 -0.0077433595 0.059064522 -0.04227834
000180 34 a2 cf 3b c4 17 84 3c 6b ce 2e bd 0b 37 96 3d
       0.006336475 0.016124614 -0.042677324 0.07334717
000190 7b eb 2f 3d c8 97 69 3c 4e d5 2a bc 02 92 8f 3c
       0.04294918 0.014257379 -0.010426832 0.017525677
0001a0 54 42 f4 3d cf b3 f0 3d cc 1a 64 3d 4c a1 c8 3d
       0.119267136 0.11753046 0.055689618 0.0979639
0001b0 27 0c 53 3d bc 6f f0 bc 6d a4 62 bc 88 75 09 3d
       0.05152526 -0.029350154 -0.0138331475 0.033559352
0001c0 06 e0 04 be 6f a7 0f 3e 4d 6b 9c bc fb 36 05 3b
       -0.12976083 0.14028715 -0.019094134 0.002032696
0001d0 57 71 ab 3d 3b ae 28 bc 3d b8 f4 bc db 6e 18 3d
       0.08371227 -0.010295446 -0.029873008 0.037215095
0001e0 b2 4d c2 bb a5 f1 b2 bd c6 e3 77 3c 67 ee 24 bc
       -0.005929672 -0.08737496 0.015129989 -0.010066605
0001f0 45 99 e8 3c 2f 7e 1b 3e 34 89 17 bc 04 2a 36 bc
       0.028393397 0.15184854 -0.00924902 -0.011118416
000200 3f 7f 6c 3d 1e e7 1d 3d a5 15 8a 3d 9a 6d 61 bc
       0.05773854 0.03855049 0.067424096 -0.013759041
000210 20 06 ac bc 3c 6e 15 3e f7 df a1 bd 21 4a 9f bd
       -0.020999014 0.14592832 -0.07904046 -0.07777811
000220 e3 5f 16 3e cd 71 4d bd 74 14 5e 3d fb e8 a0 3d
       0.14685015 -0.050157357 0.054218724 0.078569375
000230 4f 88 28 3c 0f 67 64 3c d9 2f 73 3d 39 6c 86 bd
       0.010286405 0.013940587 0.059371803 -0.065636106
000240 25 9b 79 bc fe b8 7e 3d f4 3b 47 3d d6 94 36 bd
       -0.015234743 0.06218814 0.04864116 -0.044575535
000250 53 90 38 bd c6 8d 1e 3d d3 d9 05 3e 8d 21 07 3d
       -0.045059513 0.038709424 0.13071375 0.03299098
000260 30 82 33 3e a1 13 e1 3c 0f 6f 0b bd df 9b aa bd
       0.17530131 0.02747518 -0.03404146 -0.08330511
000270 00 29 06 be 28 db 29 be d4 c0 00 bd 75 85 b1 bd
       -0.13101578 -0.16587508 -0.031433895 -0.08668033
000280 21 6a ad 3c 32 a6 d7 bb 40 85 3d bd b0 0c 8e bd
       0.02116877 -0.0065810913 -0.046269655 -0.06936014
000290 fb d5 69 bd 3f 5e 98 bc 6f 95 ae 3d e9 a0 63 bd
       -0.057088833 -0.018599628 0.08524596 -0.055573378
0002a0 8b 32 d2 bd 84 92 5d 3d ca b5 00 bd 47 bf 03 bd
       -0.102635466 0.054094806 -0.031423368 -0.03216484
0002b0 cc 29 4f bd 13 22 f7 bd 3f 5f fa 3a 11 f5 62 3c
       -0.05057697 -0.12067046 0.0019101872 0.013852374
0002c0 3e 09 01 be f7 91 9f bd ba b5 ac bd 21 9c 29 3c
       -0.12601182 -0.077915125 -0.08433099 0.010352165
0002d0 af fe c6 bd ab e7 94 bd 78 00 ec bd 99 72 a7 bd
       -0.09716546 -0.0727075 -0.11523527 -0.08176155
0002e0 37 3d 42 3d f2 95 06 bd 1d d5 14 3d 80 79 23 3e
       0.04742166 -0.032857843 0.036336053 0.15964317
0002f0 7e 51 16 3e 78 fb 2b 3d b1 7f 4b 3d 38 96 c0 3c
       0.14679524 0.041987866 0.049682323 0.02350913
000300 5b c4 fa 3c 7f 63 73 bd 36 7e 92 bd f5 eb fb bc
       0.030611208 -0.05942106 -0.07152979 -0.030752162
000310 2e 1b 3b 3e cb 41 48 bd 71 44 03 3d 61 ff b0 bd
       0.18272087 -0.04889087 0.032047693 -0.0864246
000320 eb 95 79 bd a4 d0 c0 3d 85 db 95 3d 45 e8 3e 3d
       -0.06093399 0.09414795 0.07317261 0.04660823
000330 1f f0 61 bd 8c ee 87 bd 83 6d 57 3e 33 8b 30 be
       -0.055160638 -0.06637296 0.21037869 -0.172406
000340 66 d4 a6 3d b4 72 78 3d b1 ea 91 3d 95 8d cc 3d
       0.081459805 0.060656264 0.07124842 0.09987942
000350 59 71 ae 3b 6a c4 c9 bd 00 51 d7 3c 7f 37 19 bd
       0.0053235707 -0.09851916 0.026283741 -0.03740644
000360 65 4f cb 3d 32 c3 7a bd 93 8a 03 3e 14 61 ae bd
       0.09927253 -0.06122131 0.1284583 -0.0851461
000370 c0 51 fa bd 69 3e 8a 3d 0c 2f 5c bd e3 f1 d7 bd
       -0.12222624 0.06750185 -0.053755805 -0.10544183
000380 be 59 09 bd bf da a0 bd f1 de 5a bd 7e 59 c1 bc
       -0.03353285 -0.078542225 -0.05343527 -0.023602244
000390 6a 17 3d 3b 7f 4e 09 be 9c 3a 18 be a3 fc 78 3c
       0.0028853067 -0.1340885 -0.14866108 0.015196952
0003a0 69 3a 27 bd a3 0c af bc e2 df d1 bd 89 7a 05 3d
       -0.04082719 -0.02136833 -0.102477804 0.03258756
0003b0 75 23 14 3d 22 37 9f 3d c4 00 a2 3c 60 d3 ab bb
       0.036166627 0.077741876 0.019775756 -0.0052437037
0003c0 c8 b6 a9 bd e4 13 3a 3d 2e d2 e8 bb e8 a0 8e 3d
       -0.08286816 0.045429125 -0.0071051335 0.06964284
0003d0 ea 01 bc 3d 98 55 c4 3c 5c a7 d9 3d 75 36 a2 bc
       0.091800526 0.023966596 0.106276244 -0.019801358
0003e0 e8 fd db bd 1f 3c bf bd 48 e1 de 3c 36 74 10 3d
       -0.10741788 -0.09337639 0.027207032 0.035267077
0003f0 ff 4b a6 3d 96 43 13 3c b5 83 22 3e 42 80 a3 bd
       0.08119964 0.008988282 0.15870555 -0.079834476

lstm1.weight_hh_l1 f4 [512, 128]
000000 66 19 ec bc 34 cc ab bd a8 1e 30 3d a1 92 b9 3c
       -0.028820705 -0.08388558 0.042997986 0.022652926
000010 5b 54 65 bd 7a 33 df bd 39 4b b6 3d 79 73 21 3d
       -0.05598865 -0.1089849 0.08901066 0.039416764
000020 ae 87 ea 3b 8a 59 07 bd d6 84 38 bc 66 09 43 3d
       0.0071572876 -0.033044375 -0.011262139 0.047616385
000030 d1 f7 9c 3c 2b 66 24 3b ef 56 7d 3c a9 53 a4 bd
       0.019161137 0.002508531 0.015462621 -0.080237694
000040 88 d7 bb bd 39 87 8f bc c5 e0 7d 3d 58 73 6c 3d
       -0.09171969 -0.017520534 0.061981935 0.057727188
000050 a8 05 0e bd 2a b7 db 3d 3c 2e 89 bd 31 17 7f 3d
       -0.034673363 0.10728295 -0.06698272 0.062277976
000060 1c 95 dc bc dd 35 de 3b 93 f2 b1 bd 26 4b 65 3d
       -0.02692657 0.0067813233 -0.086888455 0.05597987
000070 a7 28 16 be 12 34 87 3c e5 c7 47 bd 01 d0 82 bc
       -0.14663945 0.016504321 -0.04877462 -0.015968325
000080 23 f1 1c 3d b9 67 02 3d 36 1c 5c 3d df f5 20 bc
       0.038315903 0.0318372 0.05373784 -0.009824245
000090 2b 5c cb bd 26 0e 31 3c e3 11 a7 3d bc c6 d4 bd
       -0.09929689 0.010806596 0.081577085 -0.10389468
0000a0 b9 95 da 3d ff c5 aa bd 33 fe 50 bd 77 c2 c4 bc
       0.106730886 -0.08338546 -0.051023673 -0.02401851
0000b0 54 3b 9a bd 55 9a e6 3d 7f 1d 29 3c 7e 77 b7 3d
       -0.07530847 0.11259905 0.010321974 0.08958338
0000c0 55 5a dd 3d 01 ad e7 bc b7 cf 73 3c 4f f8 51 bc
       0.10808245 -0.028280737 0.014881066 -0.012815549
0000d0 b1 4a 12 be ca e6 33 3b c0 c8 a7 3c 07 6b ca 3c
       -0.14286305 0.0027450793 0.020481467 0.024709238
0000e0 50 76 93 bd 89 98 0a bd 6a 58 fe 3d 58 00 ad 3d
       -0.07200301 -0.033836875 0.124192074 0.08447331
0000f0 84 12 9e 3d bb 53 5d 3d 86 7a 04 be 25 a7 11 bd
       0.07718375 0.05403493 -0.12937364 -0.035559792
000100 93 6c 77 3d 29 ae 28 bc df 6f 65 3c a7 66 af 3d
       0.06040628 -0.010295429 0.014003723 0.08564501
000110 8d f8 0f 3d a7 c2 ae bc fa b1 62 bc 24 1e 51 3c
       0.035149146 -0.021333052 -0.013836378 0.012763534
000120 d9 00 8e bd e2 bd c6 bd 48 39 e1 bd 1d b0 77 3d
       -0.069337554 -0.09704186 -0.10997254 0.06047069
000130 3e 99 fe bc 9c f9 5f bd 2c c0 59 bd ce af 21 3e
       -0.031078931 -0.054681405 -0.053161785 0.1578972
000140 1a 9c 21 be 4d d0 68 be 3f 17 91 3d 42 39 17 3d
       -0.15782204 -0.2273571 0.07084512 0.03691984
000150 fe 5d 93 3d 4f d4 b1 bd 68 26 de bd 85 5a 39 3c
       0.07195662 -0.08683073 -0.10847169 0.011313085
000160 f6 e8 9e 3c cd 30 b6 3d 2b 8d c4 bd 27 8e 8c bd
       0.019398194 0.08896027 -0.09597238 -0.06863051
000170 cc 2e c5 3d d0 13 aa bd 02 76 e4 3d 6f 54 83 bd
       0.096280664 -0.0830456 0.11155321 -0.06412589
000180 ea cb 21 bd e0 73 fe bd 9f fa a6 3d 27 df dd 3d
       -0.03950111 -0.12424445 0.08153271 0.108335786
000190 a9 1b c7 3d 84 0b 19 3d 18 1c 07 bd a6 39 e8 bc
       0.09722073 0.037364498 -0.032985777 -0.028347801
0001a0 bd 97 81 3d 9d 0c de 3c 2f 75 2e bd 1c 83 5b bd
       0.0632777 0.027105624 -0.042592224 -0.053591833
0001b0 61 fa a2 3d 5d 9d 32 3d eb c3 11 3d d1 77 a1 bd
       0.07957912 0.043607105 0.035587233 -0.07884181
0001c0 7e 1f 80 bd b8 b8 d2 bd 45 bd 71 3d f6 aa 9b bc
       -0.06256007 -0.102891386 0.059018392 -0.019002419
0001d0 6a 7d b3 3c 68 c8 43 bc b3 d8 49 be 19 f6 5d 3d
       0.021910388 -0.011949636 -0.1971157 0.054189775
0001e0 ba d8 c0 3d 20 56 80 3a 53 7d f3 3c 13 fc e2 3d
       0.09416337 0.0009791292 0.029722845 0.110832356
0001f0 2f b1 a3 3d d7 4e 7d 3d cf d3 67 3d 30 48 46 3c
       0.079927795 0.061842766 0.05659848 0.012102172
000200 ac 6f 4e bd 3f ac f8 3d b9 d3 0f 3d 36 f3 09 bd
       -0.050399467 0.12142228 0.035114024 -0.03367921
000210 8c 89 e6 bd 2a 9e 60 bd 2c a7 9d 3d fe a5 6a be
       -0.11256704 -0.054838337 0.07697901 -0.22914883
000220 6f 86 87 3d 3f 45 9a bd b6 10 51 bb e5 d9 82 3d
       0.06617438 -0.07532739 -0.003190083 0.06389216
000230 77 ec bd bc 21 d1 7a 3d 09 54 7e bd 30 b3 58 bc
       -0.023184044 0.061234597 -0.06209186 -0.013226315
000240 07 15 0a 3e bb 41 01 3d 3b 72 89 3d c6 69 21 be
       0.13484584 0.031556826 0.06711241 -0.15763006
000250 94 24 8c bb 52 23 9b 3d 01 a6 2d 3e 6a d9 dc bd
       -0.0042768214 0.07575096 0.16957857 -0.10783656
000260 a4 54 0a 3d 28 86 81 bd 2c e4 00 3d 3e cd a4 bd
       0.033772126 -0.063244164 0.0314676 -0.08046959
000270 36 7b 19 be 82 b1 f5 3d 8e 14 2c be fd b7 cf bc
       -0.14988407 0.119967476 -0.16804716 -0.025356287
000280 e1 2a cb 3c d5 de 68 3d 82 ce cf 3c 64 d5 6b ba
       0.02480072 0.056853134 0.025367025 -0.0008996336
000290 ba bb 1f 3d da 14 7e 3d 85 97 08 3e 0a b8 97 3d
       0.03899739 0.062031604 0.1333905 0.074081495
0002a0 29 ce ae 3c d6 36 e7 3d 28 5f 67 bd a2 1f 7b bc
       0.02133854 0.11289756 -0.056487232 -0.015327366
0002b0 47 af f8 bd 70 23 6d bd d6 24 56 bd 26 a7 b6 3d
       -0.121428065 -0.057895124 -0.052281223 0.089186
0002c0 2d db a6 bc 2a d5 ae 3d 69 66 fd bc 54 53 8b 3d
       -0.020368183 0.085367516 -0.030932622 0.06803003
0002d0 19 c3 7c bb eb 5a 9e bc 08 a7 28 bd d0 db cb 3d
       -0.0038568436 -0.019330462 -0.04117492 0.09954035
0002e0 44 89 2f 3d b5 75 35 be a5 20 ec bc 76 1b 6d 3d
       0.042855516 -0.17720683 -0.02882416 0.057887517
0002f0 12 54 f3 bc 48 b8 40 3e 39 df 7b be f2 17 fa bd
       -0.029703174 0.18820298 -0.24596871 -0.122115985
000300 3d 7a c4 bd 3d 92 b1 bc 42 63 be 3c cf bb bc bd
       -0.095936276 -0.021676177 0.02324069 -0.09215509
000310 ff a2 1c be 1b 12 99 3d 1d 4c 79 bd 21 7e df 3d
       -0.15296553 0.074741565 -0.060863603 0.10912729
000320 9f 91 7e bd 04 1d 3a be 59 4c 0b 3e 4e 86 5a 3d
       -0.062150594 -0.18175131 0.13603343 0.05335074
000330 5c 6b be bd 0f 71 56 bd 40 c0 18 3d 5c a6 9a bd
       -0.09297821 -0.052353915 0.03729272 -0.07551262
000340 97 97 b4 bd d8 ca e2 bd ed 2b c8 3d de 16 78 bd
       -0.08817976 -0.110738456 0.09774003 -0.060568683
000350 5c bf 02 be bf 5d 65 3d 24 41 ba bc 8d 2e 65 3c
       -0.1276831 0.055997606 -0.02273614 0.013988149
000360 8f 7b 6d bc 3d 1e 9d 3d 37 61 9c bd 18 ca 1f 3b
       -0.014494791 0.07671783 -0.0763573 0.0024381932
000370 73 10 f7 bd 63 78 98 bd f8 bb 1b 3b 15 9c 67 be
       -0.12063684 -0.07444837 0.002376316 -0.22618134
000380 70 49 c3 bd d7 7f 9e 3c f5 3b 4b 3c 0a 6c 7a bd
       -0.095354915 0.019348068 0.012404432 -0.06113819
000390 6b d8 a1 bd f7 fd 75 bd ae 9a f1 3c 14 ce fa bd
       -0.079026066 -0.060056653 0.029492702 -0.122463375
0003a0 f1 28 54 bc 0a 07 06 3d f9 ec 38 3c 77 e0 47 bd
       -0.012949214 0.032721557 0.011286967 -0.04879805
0003b0 9f 91 bd 3d 53 40 ce 3d 0d 28 01 3e 0f b2 61 bd
       0.09256291 0.100708626 0.12612934 -0.05510145
0003c0 a9 e6 56 bd ab c3 e4 bc a6 9a f4 bd 42 d9 9e 3d
       -0.05246607 -0.027925333 -0.11943559 0.077562824
0003d0 0f 7f 0a 3e 3a 9d d2 3d 73 b7 31 3d d5 95 d6 3c
       0.13525032 0.10283895 0.04338784 0.026194492
0003e0 40 71 8f bd 2f 29 64 3d b6 8d b0 3d e0 69 80 bd
       -0.070040226 0.05570334 0.08620779 -0.06270194
0003f0 03 ae 28 3e 12 71 11 3d 29 b8 24 be b0 d9 e1 3c
       0.1647263 0.035508223 -0.16085877 0.027569622

lstm1.bias_ih_l1 f4 [512]
000000 fb e4 62 bc 81 62 da 3d 64 e0 96 3d f3 90 1b 3d
       -0.0138485385 0.106633194 0.07367018 0.03798003
000010 c0 92 82 bc 59 db 87 3d 8d e5 bb 3d d7 60 04 3e
       -0.015939116 0.06633634 0.09174643 0.12927566
000020 2a c8 a6 bc 4c 9e 6c bc 8a c9 bb 3d af 73 37 3d
       -0.020359118 -0.014442038 0.091693 0.04478806
000030 bd ef 2d bd 98 99 04 3e 80 12 a9 3d 89 8f d6 bc
       -0.04246496 0.12949216 0.08255482 -0.02619149
000040 0c de 8f 3c e9 5d 90 3d f6 c8 1c 3e 65 2c d5 3d
       0.017561935 0.07049162 0.15311036 0.10408858
000050 f5 3b 78 bd b1 57 81 bd e1 15 1c 3e ef 2a 52 3c
       -0.060604054 -0.06315554 0.15242721 0.012827619
000060 65 a6 71 3c dc 15 ed 3d 88 6d ad 3d 6f 01 38 3d
       0.014749144 0.11576435 0.08468157 0.044923242
000070 f6 7b ce 3d c3 a8 cb bb 51 6f 19 3d f4 a0 f8 3d
       0.100822374 -0.0062151863 0.037459675 0.12140074
000080 5f 95 8a 3d e9 76 29 3e 57 32 0b 3d 5c b8 0f 3c
       0.067667715 0.16549267 0.033983555 0.008771982
000090 a1 20 d8 3d d0 ae a3 3d fb a2 95 3d 03 bc aa bd
       0.105530985 0.07992327 0.07306477 -0.08336642
0000a0 26 9e 92 3b 69 1c 12 bb 95 32 67 3c 8e 26 f9 3d
       0.004474419 -0.0022294766 0.014111181 0.12165557
0000b0 62 93 06 3d 2d 3f 9b 3d 0b d5 ca 3c a6 1c 2e bd
       0.0328554 0.07580409 0.02475979 -0.04250779
0000c0 12 90 c3 bd 63 f1 29 3c fe ac 85 3c 7a d4 0b bd
       -0.095489636 0.0103724925 0.01631784 -0.03413818
0000d0 fa d0 46 3c f8 95 00 bc e7 8e 39 bd 45 44 20 3d
       0.012134785 -0.007848255 -0.045302298 0.039127607
0000e0 44 15 49 bb 2c 3c 77 3d 0e e0 3b 3c 03 36 23 3d
       -0.0030682841 0.06036012 0.011466993 0.03984643
0000f0 1c 56 84 3d 7b a9 31 3d b8 b4 c4 3d 03 d8 9f 3c
       0.064617366 0.04337452 0.09604782 0.019512182
000100 51 9b 19 3d 06 93 a9 3d da 0e 77 3c ce 58 dd 3d
       0.037501637 0.082799956 0.0150792245 0.10807954
000110 5f 2e a5 3c a8 46 28 bd 51 fe d7 3d df 43 08 3d
       0.020163713 -0.041083008 0.10546554 0.033267852
000120 e4 ed 9b 3d 80 53 1d bd b9 ea 8e 3d 0a f5 9b 3d
       0.076137334 -0.03840971 0.069783635 0.07615097
000130 65 12 97 3c f2 ed f5 3c 68 36 97 3d af d9 00 bd
       0.018441388 0.030020688 0.07383424 -0.0314576
000140 2f 86 7f 3d fa fd 29 39 68 73 84 3d 5d 6e cc 3d
       0.062383827 0.0001621171 0.064673245 0.099819876
000150 99 5b a1 bd bf 39 c3 3c e7 82 c0 3c 03 a9 d6 3c
       -0.07878799 0.023831246 0.02349992 0.026203638
000160 52 fa fd 3c 4b bf ee bc 07 2e 90 3d 15 e4 0e 3e
       0.031003151 -0.02914395 0.07040029 0.13954194
000170 81 8f 20 3e 34 7e bd 3c b5 d6 65 3d 82 61 99 3c
       0.15679742 0.023131467 0.056112964 0.018723253
000180 2f 88 6d bc 0f b4 1e 3d 45 03 ef 3d 07 1c 05 3a
       -0.014497801 0.038745936 0.116705455 0.0005077724
000190 53 b2 ea 3d 8a c3 f2 3b 39 e5 1a bd 3b 9e 21 3e
       0.11459794 0.007408564 -0.03781626 0.15783016
0001a0 31 76 5b 3d c9 58 63 bd 4a 5f 93 3d 6f d6 0e 3e
       0.053579513 -0.055504594 0.07195909 0.13948987
0001b0 26 2d 07 3e 55 49 0a bc 6a cd 09 3d 55 1d 54 bc
       0.13200817 -0.008440335 0.033643164 -0.012946446
0001c0 2f 53 b6 3d 03 9a 8c 3c 1a 4c b5 3c 8f d3 91 3d
       0.08902585 0.017163282 0.022131015 0.0712043
0001d0 b6 ab 74 3d 57 25 27 3d 5d 35 b6 bb 27 8a 9e 3c
       0.05973407 0.040807094 -0.0055605606 0.019352986
0001e0 90 d8 e1 3d 02 ef de 3c 0c cc b8 3d cf ae c6 bd
       0.11027634 0.027213577 0.09023294 -0.09701311
0001f0 46 33 05 3e c6 20 d8 3a 43 6a b1 bc cf c0 31 bd
       0.1300784 0.001648926 -0.021657115 -0.043396767
000200 37 27 5d 3c 92 8f 4d bd 5d 59 dc bc 0c 9b d9 3d
       0.013498119 -0.050185747 -0.02689808 0.10625276
000210 29 29 70 bd b3 df fb 3d e3 a2 32 3d d8 10 6f 3c
       -0.058633003 0.122985266 0.043612372 0.014591418
000220 07 fb 56 3d b5 77 25 3d 2b 69 55 3d b6 11 e3 3d
       0.052485492 0.040397365 0.05210225 0.110873625
000230 3b 7f a5 3d cb 19 e8 3b 40 a9 9b 3c 98 ef 3a 3d
       0.08080908 0.007083153 0.019001603 0.04563865
000240 48 86 ab 3b ba 45 35 3d b8 7c f4 bb 91 4b 11 3c
       0.0052345134 0.04425595 -0.0074611567 0.008868114
000250 89 3e e8 3d c9 56 b9 3d ec 3c 88 bc 29 b6 8c bd
       0.11340053 0.09049756 -0.016630612 -0.06870682
000260 6d 52 09 bd 61 19 98 bb 68 b1 63 bd 5e 9e 0d bd
       -0.033525873 -0.0046416973 -0.05558911 -0.03457486
000270 aa 73 b1 3d 32 ac ec 3d fd df ce 3d 9f 80 10 3d
       0.08664639 0.11556281 0.10101316 0.035278913
000280 fe 7b 24 3e a4 0b 8c 3d c9 aa d8 bb 16 19 34 3c
       0.16062924 0.06838158 -0.006612156 0.010992309
000290 b3 64 20 3c 14 47 e2 3b 6a 70 2d 3b 8e 7b 00 3e
       0.009789634 0.006905446 0.002646471 0.12547132
0002a0 a0 e3 17 3e 52 cc c9 bd 73 d7 82 bc e6 97 8e 3d
       0.14832926 -0.09853424 -0.015971875 0.06962566
0002b0 3c 28 4d 3d 92 44 f0 3c 69 95 09 bd d9 67 24 bd
       0.0500872 0.029329572 -0.033589754 -0.0401381
0002c0 8e 74 63 3e 26 02 04 3d 99 38 7a bd 17 09 b0 3c
       0.22212431 0.03222861 -0.061089132 0.02148871
0002d0 96 5f 4c bb c9 fe 66 3d 51 9d 51 bc 6b b2 16 3c
       -0.0031184903 0.056395326 -0.012793855 0.009197812
0002e0 26 67 b5 3d e1 89 0e 3d ca 15 30 3d 7a 96 b8 3d
       0.08857565 0.03479946 0.04298953 0.09013076
0002f0 10 ce ba 3d 21 8a 40 3d c8 3e 1e bc 1d 51 38 3d
       0.091213346 0.04700673 -0.009658523 0.04499923
000300 e0 a8 5f 3d 83 4d 62 3d 1b 20 59 3d c5 45 d9 3d
       0.05460441 0.055249702 0.053009134 0.106090106
000310 ac d4 5a 3d 27 84 10 3b 15 89 e7 bc 5f 81 e1 3d
       0.053425476 0.0022051425 -0.028263608 0.11011004
000320 51 4d 6a bc 0f ef 33 bd de f8 09 3b 4d da d0 3d
       -0.01430066 -0.043929156 0.0021052877 0.101978876
000330 19 de 94 bd 2b 1c 84 3d 2e e5 d3 3d e7 ab a2 3d
       -0.07268924 0.06450685 0.10346447 0.07942944
000340 48 c9 a2 bc d3 cf 6b 3d 81 90 b7 3d 10 69 1d 3d
       -0.019871369 0.057571243 0.08963109 0.038430274
000350 8a ac 89 bd 96 95 2e bd 02 f4 61 3c a6 68 ae bc
       -0.06722362 -0.042623125 0.013791086 -0.021290135
000360 76 74 3c bc 66 cc ad 3d 0e 49 3c bd 08 0e f6 3d
       -0.011502376 0.084862515 -0.045968108 0.12014395
000370 fd c7 7e bd a8 89 47 3d d9 c1 0c 3d b9 cf d0 ba
       -0.062202442 0.048715264 0.034364555 -0.0015931047
000380 eb 44 c8 3c 1b 32 ed 3d 76 96 c8 bc 71 49 a2 3d
       0.024446925 0.115818225 -0.024485808 0.07924164
000390 c1 b4 6a bc d0 6a 11 3d a0 c8 04 3e 7e b1 a6 bc
       -0.014325322 0.035502255 0.12967157 -0.020348307
0003a0 f6 51 4e bd 1f cb ca 3d 4a fc 67 3d 70 23 df 3d
       -0.050371133 0.099020235 0.056637086 0.10895431
0003b0 e0 4c b7 3d 15 83 3d 3d 65 dc 1f 3e 89 7e 78 3d
       0.089502096 0.046267588 0.15611418 0.06066755
0003c0 c1 af 3c 3b 01 a8 9e bd a3 cd 47 3d 25 0b 20 bd
       0.002879128 -0.07746888 0.048780095 -0.03907313
0003d0 83 c1 3b 3c a7 e5 57 ba 00 ba 27 3d 60 2c 22 3e
       0.011459711 -0.000823582 0.040948868 0.1583724
0003e0 d7 9f 0e 3d 95 36 4b bc 3c 65 82 3d 96 93 fd 3d
       0.034820404 -0.01240315 0.06366965 0.123816654
0003f0 3a c2 6b 3c b5 21 b0 3c 27 4d b3 3d 73 46 55 bd
       0.014389569 0.021500448 0.0875495 -0.05206914
